StrongLotteryTycketHypothesis/HyperNetworks/hypernetworks_cifar_paper.pth (torch, 540177 bytes, 402 tensors)

conv1.weight f4 [16, 3, 3, 3]
0	0xbdec3f97	-0.11535566
1	0xbea25554	-0.31705725
2	0x3e3ee7b7	0.1864308
3	0xbe78bba6	-0.24290332
4	0x3ef0f5d5	0.47062555
5	0x3e92095f	0.28522775
6	0xbdc4bf89	-0.09606845
7	0xbe6ffb93	-0.23435812
8	0x3d8eacd8	0.06966561
9	0xbbab369d	-0.0052250163
10	0xbe4cc6a9	-0.19997658
11	0xbca511fc	-0.020150177
12	0xbd8aeb7f	-0.067831986
13	0x3f1cb3d3	0.6121189
14	0x3d27a5ad	0.040929485
15	0xbd226091	-0.039642874
16	0xbe43b27e	-0.19111058
17	0xbdc4f49c	-0.09616968
18	0x3d8c3864	0.06846693
19	0xbe893326	-0.26796836
20	0xbe390bcd	-0.18070908
21	0x3e55e4d1	0.20888068
22	0x3ecf5f5e	0.40502447
23	0xbe28e466	-0.16493377
24	0x3e09c08a	0.13452354
25	0x3d81bb8f	0.06334602
26	0xbe7edefe	-0.24889752
27	0xbdb84199	-0.08996887
28	0xbe25d939	-0.16196145
29	0xbe556fb1	-0.20843388
30	0xbcc271c6	-0.023735892
31	0xbdc51ee0	-0.096250296
32	0xbe83ab7c	-0.2571677
33	0x3da64af6	0.081197664
34	0xbc6a0e3d	-0.014285621
35	0x3daa9f0d	0.08331118
36	0xbd5eaf1c	-0.054366216
37	0xbc7215ec	-0.014775734
38	0xbdec223d	-0.11529968
39	0x3c8444a3	0.01614601
40	0x3d74c2ac	0.059755966
41	0xbe48f361	-0.19624092
42	0xbd3def36	-0.046370707
43	0xbddddd0d	-0.10833178
44	0xbd9081ba	-0.070559934
45	0xbbde343c	-0.006781129
46	0x3e81fbec	0.25387514
47	0x3e289b59	0.1646551
48	0x3e211664	0.15731198
49	0x3ec6d5cd	0.38834992
50	0x3de7b2b1	0.113133796
51	0xbc35c7f1	-0.011095033
52	0x3d4d901f	0.050186273
53	0xbbf94019	-0.007606518
54	0x3db94f16	0.090482876
55	0x3cc42084	0.023941286
56	0xbd91ca2c	-0.07118639
57	0x3e060e01	0.1309128
58	0xbcbe3c22	-0.023222033
59	0xbd9d8255	-0.076908745
60	0x3dc4db30	0.09612119
61	0x3c47d2af	0.012196227
62	0xbd9c96dd	-0.076459624
63	0x3d8205b7	0.06348746
64	0xbc8caa86	-0.017171156
65	0xbd8f8780	-0.070082664
66	0x3dd5d4ea	0.10441001
67	0xbd684a59	-0.05671153
68	0xbdca7621	-0.098858126
69	0x3dd83c24	0.10558346
70	0xbcaca3ad	-0.02107414
71	0xbdf2128f	-0.11819946
72	0x3dd43254	0.10361162
73	0x3d44454b	0.047917645
74	0xbc372c44	-0.011179987
75	0x3dead167	0.114657216
76	0xbbfccb6c	-0.0077146795
77	0xbd785d20	-0.060635686
78	0x3dff3e66	0.124630734
79	0x3c79e1e6	0.015251612
80	0xbda7df44	-0.081968814
81	0xbe4a8e2f	-0.19780801
82	0xbdcb71fb	-0.099338494
83	0xbddfd6c1	-0.10929633
84	0x3c360352	0.01110919
85	0x3f7d7980	0.9901352
86	0x3e0bb856	0.13644537
87	0xbe149d17	-0.1451305
88	0x3e991cb0	0.299047
89	0x3e1bb022	0.15203908
90	0x3e6f2c7e	0.23356816
91	0xbe441559	-0.19148768
92	0xbcaf5d21	-0.021406712
93	0xbcdd1453	-0.02698723
94	0xbecfe42c	-0.4060377
95	0xbf2f96e2	-0.68589604
96	0x3e4c03ca	0.1992332
97	0xbef51564	-0.47867882
98	0xbe057782	-0.1303387
99	0xbc9307bc	-0.017948024
100	0x3de8e2c6	0.113713786
101	0x3e7c8504	0.24660116
102	0xbd903256	-0.07040851
103	0x3df4e4d7	0.1195771
104	0x3e31ed84	0.17375761
105	0xbd1d15c9	-0.038350854
106	0x3ba0d4a2	0.0049081603
107	0x3e0f3326	0.13984355
108	0x3da4e665	0.08051757
109	0x3e3dfaa1	0.18552639
110	0x3e41378c	0.18868846
111	0x3da1184e	0.07865964
112	0xbd4c58bd	-0.049889315
113	0xbe8e4422	-0.27786356
114	0x3e2fd786	0.1717206
115	0xbeb39512	-0.3507467
116	0xbe0f867c	-0.14016145
117	0xbdbb0ac2	-0.09132911
118	0xbd25993a	-0.04042933
119	0xbe1fc1ea	-0.15601316
120	0xbd7de8d6	-0.061989628
121	0x3e5c4d61	0.21513893
122	0xbc83b974	-0.016079642
123	0x3df903d5	0.12158934
124	0x3cbec260	0.023286045
125	0x3e67c0fd	0.22632213
126	0xbebb24de	-0.36551565
127	0xbdf89431	-0.1213764
128	0xbe261b2e	-0.16221306
129	0xbea1417f	-0.31495282
130	0x3edbc26b	0.42921767
131	0x3e6dca46	0.23221692
132	0xbe357c2a	-0.17723146
133	0x3ec64aaf	0.38728854
134	0x3ece0f25	0.4024593
135	0xbe8df67a	-0.2772711
136	0x3e14683f	0.14492892
137	0x3e529760	0.20565557
138	0xbe9a9963	-0.3019515
139	0xbe567ef4	-0.20946866
140	0x3f663784	0.8992846
141	0xbe9d112a	-0.30677158
142	0x3cb6b0be	0.022301074
143	0x3de79c7f	0.11309146
144	0x3cae4fcf	0.02127829
145	0xbd67e1a5	-0.056611676
146	0xbe2b6e39	-0.16741265
147	0x3e261a75	0.1622103
148	0xbf0d3089	-0.55152184
149	0x3d95aa00	0.073078156
150	0x3e30077b	0.17190354
151	0x3ddddc2c	0.1083301
152	0xbd4c4706	-0.04987242
153	0x3c8ae64f	0.016955523
154	0x3e844d9e	0.25840467
155	0xbdef5894	-0.11686817
156	0x3e21a5ff	0.15785979
157	0xbe7446c9	-0.23855127
158	0xbe23f2a5	-0.1601053
159	0x3e057ae4	0.1303516
160	0x3d38df02	0.04513455
161	0xbddb1579	-0.10697455
162	0x3d79b0fb	0.060959797
163	0xbea27b32	-0.31734616
164	0xbd69828d	-0.05700927
165	0xbdbe4fac	-0.0929254
166	0xbee4f238	-0.44716048
167	0xbe848ddc	-0.2588948
168	0x3d97bf08	0.07409483
169	0xbc28a60a	-0.010293493
170	0x3d93a291	0.072087415
171	0x3e0faf6d	0.14031763
172	0xbde884a8	-0.11353427
173	0x3e15e1af	0.14636873
174	0xbc1b01ef	-0.00946091
175	0xbeb14c4d	-0.34628525
176	0xbde94dd4	-0.11391798
177	0x3d7aa983	0.061196815
178	0xbd991a2b	-0.07475694
179	0x3db61492	0.08890642
180	0x3da79f16	0.0818464
181	0xbddfce5c	-0.10928032
182	0x3e1bf634	0.15230638
183	0x3d38bfb2	0.04510469
184	0xbe692e2e	-0.22771522
185	0x3c330251	0.010925845
186	0x3d61ad53	0.055096935
187	0x3ae195ef	0.0017210821
188	0x3df5d09b	0.12002679
189	0x3d1cd168	0.038285643
190	0x3eab99c7	0.3351576
191	0x3e90f5c1	0.28312495
192	0xbd2e5e55	-0.04257043
193	0x3e88475c	0.26616943
194	0x3da6a115	0.08136193
195	0xbe09be61	-0.1345153
196	0xbe87fcec	-0.26560152
197	0xbee30b0c	-0.44344366
198	0x3dfc93ab	0.12332853
199	0x3eac7640	0.33683968
200	0x3e5c8c47	0.21537887
201	0xbdb5d7a5	-0.088790216
202	0x3e174f27	0.14776288
203	0xbb8dde4b	-0.004329478
204	0xbe1930e4	-0.14960057
205	0xbea41da0	-0.32053852
206	0xbedf37fe	-0.43597406
207	0xbc3cb78f	-0.011518373
208	0x3e5f2422	0.21791127
209	0x3d951859	0.072800346
210	0xbd864194	-0.06555477
211	0x3e2fafad	0.17156859
212	0x3d287a8a	0.041132487
213	0xbe04567a	-0.12923613
214	0xbdbe346c	-0.092873424
215	0xbe72f4ee	-0.23726246
216	0xbd0d01f4	-0.03442569
217	0x3bf0d188	0.007349197
218	0x3d4f4c5e	0.05060994
219	0x3d3c5df0	0.045988023
220	0x3da3b924	0.07994297
221	0x3d8f227e	0.06989001
222	0x3e273a88	0.16330922
223	0x3e8dda14	0.27705443
224	0x3e45f79d	0.19332738
225	0xbce8c2af	-0.028413145
226	0xbd2399ad	-0.03994148
227	0xbc1254d2	-0.008931356
228	0x3c8ea2ab	0.01741155
229	0x3d040b5b	0.032237392
230	0x3d18ce20	0.03730595
231	0x3d3bb9f0	0.04583162
232	0x3e3e83ca	0.18604961
233	0x3e3b1e45	0.18273266
234	0x3c75727d	0.014980909
235	0xbcaf8a26	-0.021428179
236	0xbc76784f	-0.015043332
237	0xbc8a616a	-0.016892154
238	0x3c628f26	0.013828075
239	0xbceb44bd	-0.0287193
240	0xbd4584f4	-0.048222497
241	0x3daada9a	0.08342476
242	0x3daee314	0.085394055
243	0xbe679ec6	-0.22619161
244	0xbe4897b1	-0.19589116
245	0xbe5c4d51	-0.21513869
246	0xbd3177b5	-0.043327052
247	0x3e9466b6	0.28984612
248	0x3e9cac12	0.3060003
249	0xbca29092	-0.019844327
250	0x3f029bef	0.51019186
251	0x3eb1de2f	0.34739825
252	0xbda2b070	-0.07943809
253	0xbd99fa93	-0.07518496
254	0xbe0f93ed	-0.14021273
255	0x3c53ab66	0.012919283

conv1.bias f4 [16]
0	0x391f1521	0.00015171293
1	0x38aa61ed	8.124472e-05
2	0x364dd94f	3.067387e-06
3	0x39aee021	0.00033354855
4	0x38a4c4fc	7.8568206e-05
5	0xb9035d20	-0.00012527825
6	0xb8bc5dce	-8.982011e-05
7	0xb897f519	-7.245894e-05
8	0xb78f23b1	-1.7063549e-05
9	0x39168ae2	0.00014356853
10	0x38a1f5e4	7.722879e-05
11	0xa8c84571	-2.2234576e-14
12	0x37ae85d2	2.0804731e-05
13	0x37e97a39	2.7832679e-05
14	0xb9aaee2a	-0.00032602373
15	0xb80d9a98	-3.3760996e-05

bn1.weight f4 [16]
0	0x3ed2becc	0.4116119
1	0x3df6851e	0.12037109
2	0x3dfa9890	0.1223613
3	0x3eea3942	0.4574681
4	0x3ebca4ad	0.36844388
5	0x3eb8c1c5	0.36085334
6	0x3f4c6430	0.79840374
7	0x3ec4fba4	0.38473237
8	0x3ec613e7	0.3868706
9	0x3e9882f4	0.2978741
10	0x3f05c7ff	0.52258295
11	0x00002b17	1.5458e-41
12	0x3f15b360	0.5847683
13	0x3edf18af	0.4357352
14	0x3edb6267	0.42848513
15	0x3ed3c2ac	0.4135946

bn1.bias f4 [16]
0	0x3f030cc9	0.51191384
1	0x3d672af5	0.05643745
2	0xbe0fdabe	-0.14048287
3	0x3ed8acd0	0.42319345
4	0x3eec8009	0.46191433
5	0x3ef7fbec	0.4843439
6	0xbedb416a	-0.42823344
7	0x3e8e70df	0.2782049
8	0xbea82f71	-0.32848695
9	0x3e888427	0.26663324
10	0xbe7561fa	-0.23963156
11	0x8d91a3ad	-8.975718e-31
12	0x3f04a3dc	0.5181253
13	0xbc896b9d	-0.016774947
14	0x3eb784fa	0.3584364
15	0x3e74e1fb	0.2391433

bn1.running_mean f4 [16]
0	0x3bf2e26c	0.0074122455
1	0x3cf2049b	0.029543212
2	0x3b2901cd	0.0025788427
3	0xbb6ce524	-0.003614732
4	0x3b42f37b	0.0029747176
5	0xbbf0ae42	-0.007344992
6	0x3b859705	0.004076841
7	0x3c56bdd8	0.013106786
8	0xbc291aa2	-0.010321291
9	0xbc1ea666	-0.009683227
10	0xbcd22ca8	-0.02565606
11	0x350939e7	5.1120736e-07
12	0x3b984bbf	0.0046477015
13	0xbc2614ec	-0.010136824
14	0xba9c2034	-0.0011911453
15	0x3d34447b	0.04401062

bn1.running_var f4 [16]
0	0x3eaf0c3d	0.34189025
1	0x3f191891	0.5980311
2	0x3eb9c610	0.36283922
3	0x3eae063a	0.33989125
4	0x3f27118f	0.6526117
5	0x3e838000	0.25683594
6	0x4001c22a	2.0274758
7	0x40085e20	2.130745
8	0x4012e49b	2.295203
9	0x3eaa01d3	0.33204517
10	0x4004c2c4	2.0743876
11	0x331399f2	3.4366117e-08
12	0x3faddab9	1.3582374
13	0x3ffab098	1.9585142
14	0x3eb82301	0.35964206
15	0x3fcff28c	1.6245894

hope.w1 f4 [64, 1024]
0	0xbd3b28e0	-0.04569328
1	0x3d2bdfad	0.04196136
2	0x3df8791a	0.12132473
3	0x3d8e2d04	0.0694218
4	0xbd9c0ec2	-0.07620002
5	0x3e22dfdd	0.1590571
6	0xbb0fe256	-0.0021954975
7	0x3ca45eb0	0.020064682
8	0xbdbe2eec	-0.092862934
9	0x3e284291	0.16431643
10	0x3d7b9c0d	0.06142812
11	0xbd4dce35	-0.050245482
12	0x3d683d4b	0.05669908
13	0xbaac66c1	-0.0013153182
14	0x3dd72475	0.105050005
15	0x3d462b68	0.04838124
16	0x3cf9a8d1	0.030476006
17	0xbe1d1727	-0.15340863
18	0x3de190e9	0.110139675
19	0x3c26aaaa	0.010172525
20	0xbd767115	-0.060166437
21	0x3c23869c	0.009980824
22	0x3d8b07f1	0.06788624
23	0xbdf239d4	-0.11827436
24	0x3d9011ec	0.07034668
25	0x3d4c93ff	0.049945828
26	0xbe0d08e7	-0.13772927
27	0x3d133a8d	0.03594451
28	0x3b485dab	0.0030573409
29	0x3d935768	0.07194406
30	0x3d52d2b5	0.051470477
31	0x3c05d3a0	0.008168131
32	0x3c0ff46f	0.008786305
33	0xbce10e3f	-0.027472613
34	0xbb4ca945	-0.0031228822
35	0x3ca7f45e	0.020502266
36	0xbb99f9db	-0.0046989745
37	0x3e2bfe21	0.16796161
38	0x3b176f31	0.0023107047
39	0x3c24b5d2	0.010053115
40	0x3d4b637b	0.04965542
41	0x3e22b12a	0.15887895
42	0xbbc470b0	-0.0059948787
43	0x3c8350a9	0.016029673
44	0x3b3c160d	0.0028699667
45	0x3e4e5dee	0.20153019
46	0x3b77e125	0.0037823406
47	0x3ca68a47	0.020329608
48	0x3ccee608	0.025256172
49	0x3e6072cb	0.2191879
50	0xbd43ecec	-0.04783337
51	0xbc375d1e	-0.011191634
52	0x3de047bc	0.10951182
53	0x3d4c5f8a	0.0498958
54	0xbce90517	-0.02844481
55	0x3cfe4304	0.031037815
56	0x3c737211	0.0148587385
57	0x3dc88346	0.097906634
58	0x3c8c49f9	0.017125117
59	0xbd452a89	-0.048136268
60	0xbd805a25	-0.06267194
61	0xbd40acc7	-0.047039773
62	0xbd79b09c	-0.060959443
63	0x3c443a9e	0.011976866
64	0x3d913a2c	0.070911735
65	0x3c6bb15d	0.014385548
66	0xbdf609d6	-0.12013595
67	0xbd52a06d	-0.051422525
68	0xbdd6ebfc	-0.10494229
69	0x3d000d4d	0.031262685
70	0xbab5bdaf	-0.0013865734
71	0xbdba6358	-0.091009796
72	0x3d356b09	0.04429153
73	0x3e04a168	0.12952197
74	0xbd34cf55	-0.04414304
75	0x3dbf46bf	0.093396656
76	0xbd264e1e	-0.040601842
77	0xbc73c0e2	-0.01487753
78	0x3d5f0402	0.05444718
79	0xbe4967f8	-0.19668567
80	0x3e4f3484	0.20234877
81	0x3d3d78de	0.046257846
82	0x3dba932c	0.09110102
83	0x3d9d46be	0.076795086
84	0x3b80cc5d	0.003930612
85	0x3c2fff74	0.010742057
86	0x3ba69be9	0.005084504
87	0xbca57877	-0.020199044
88	0x3cc66fbb	0.0242232
89	0xbcc39615	-0.023875276
90	0xbe5c8b79	-0.2153758
91	0xbd7424bc	-0.059605345
92	0xbc3510f1	-0.011051402
93	0x3d94b386	0.07260804
94	0x3e3969d0	0.1810677
95	0x3c1523ca	0.009102771
96	0x3c85813d	0.016296977
97	0xbc7b03b2	-0.015320705
98	0xbcc1a061	-0.023636045
99	0xbdc37ba6	-0.095450684
100	0xbd01df7a	-0.031707264
101	0xbe5e5642	-0.21712592
102	0x3d42228d	0.04739623
103	0x3c956c85	0.018240223
104	0xbc80a9f6	-0.015706044
105	0xbd2e8c69	-0.042614374
106	0xbc48b65e	-0.012250511
107	0x3c0b8bfe	0.008517263
108	0x3b31e5a9	0.0027144945
109	0x3d16ce16	0.036817633
110	0xbc1f41e1	-0.009720297
111	0xbcb9da13	-0.022686994
112	0x3b0f08a0	0.002182521
113	0xbe13cdcc	-0.14433974
114	0x3d775ba2	0.060390122
115	0xbd1a8d67	-0.037732508
116	0xbd86f256	-0.06589191
117	0xbe832dff	-0.2562103
118	0x3c208b22	0.009798797
119	0xbc8ceb1d	-0.017201954
120	0x3cd7a2ba	0.026322711
121	0x3dc7a96c	0.097491115
122	0xbca61274	-0.020272471
123	0xbd69de6b	-0.05709688
124	0x3dc5a68c	0.09650907
125	0x3cf40191	0.029785903
126	0x3d3239ef	0.04351228
127	0xbc6486ae	-0.013948126
128	0xbd8f7e03	-0.07006457
129	0x3c857b3b	0.016294112
130	0x3d3b6d93	0.045758795
131	0x3c709c36	0.014685681
132	0x3d32aee0	0.043623805
133	0xbe47eb59	-0.19523372
134	0x3cc41f03	0.023940569
135	0xbb09effd	-0.0021047585
136	0xbd9390e8	-0.07205373
137	0xbcc8e46c	-0.024522983
138	0xbd35831f	-0.0443145
139	0xbca32618	-0.019915625
140	0xbd89f968	-0.067370236
141	0x3d5c7925	0.05382647
142	0x3c59bec7	0.013290114
143	0xbd9e8dc0	-0.077418804
144	0xbda2c51c	-0.07947752
145	0x3d34f5b5	0.044179637
146	0x3c488875	0.012239565
147	0xbdbe57d1	-0.092940934
148	0xbcff0967	-0.031132413
149	0x3ab024ed	0.0013438739
150	0x3e4c05c6	0.19924077
151	0xbc005c2b	-0.007834475
152	0xbd304ffe	-0.043045036
153	0x3c73680b	0.014856349
154	0x3de96833	0.113968275
155	0x3d600d5e	0.054700248
156	0x3d21e5a2	0.039525636
157	0x3e2c7989	0.16843237
158	0xbd872dfb	-0.06600567
159	0x3b23882a	0.0024952986
160	0x3c87d767	0.016582204
161	0x3cc16bd1	0.023610981
162	0x3c204883	0.009782913
163	0x3bf30ff9	0.0074176756
164	0x3b78ced3	0.0037965074
165	0xbce312cb	-0.027718922
166	0xbc907981	-0.017636063
167	0x3cc61a7e	0.024182554
168	0x3e418609	0.18898787
169	0x3de31b00	0.11089134
170	0xb8fe1530	-0.0001211561
171	0x3ca12eb5	0.019675592
172	0x3d0f9892	0.03505761
173	0xbdc05954	-0.09392038
174	0xbc460998	-0.012087248
175	0xbca43ef0	-0.020049542
176	0x3b859d72	0.004077607
177	0x3e24d91e	0.16098449
178	0xbd8afa80	-0.0678606
179	0x3d11c659	0.03558955
180	0x3d445db5	0.04794093
181	0xbe3e8dde	-0.18608806
182	0xbc124aaf	-0.008928939
183	0xbb936c8f	-0.004499025
184	0x3c925dd9	0.017867016
185	0x3e059b1a	0.13047448
186	0x3b04d0a6	0.0020265966
187	0xbe40a51b	-0.18812983
188	0x3c2f8f77	0.010715357
189	0xbd5d9a80	-0.05410242
190	0xbe49442a	-0.19654909
191	0xbb62a29a	-0.0034581781
192	0x3d944f22	0.07241656
193	0x3d875a43	0.06609013
194	0xbe3b79c8	-0.18308175
195	0x3d1fb3c8	0.038989812
196	0xbe03899c	-0.12845463
197	0x3cf475d0	0.029841334
198	0x3d3eaf20	0.04655373
199	0xbdbccb4a	-0.09218462
200	0xbd4d82f1	-0.050173704
201	0x3d2171ef	0.039415296
202	0xbe12e583	-0.14345364
203	0xbdb5501d	-0.08853171
204	0x3de85aa6	0.11345415
205	0xbc5299ee	-0.0128540825
206	0x3d14ca02	0.036325462
207	0xb9faf44e	-0.00047865737
208	0xbd8370a1	-0.06417967
209	0x3de2c153	0.1107203
210	0xbe289541	-0.16463186
211	0x3d717960	0.058953643
212	0xbdc4e03a	-0.0961308
213	0x3bc6b69b	0.0060642487
214	0xbde3787d	-0.11106966
215	0xbdf2bc61	-0.11852337
216	0xbe05d7a1	-0.13070537
217	0xbd468e9b	-0.048475843
218	0xbe02c1f0	-0.12769294
219	0xbd8f9f46	-0.07012801
220	0x3aec0f04	0.0018009846
221	0x3d965c0b	0.073417746
222	0x3dd2b936	0.102892324
223	0x3d264a34	0.04059811
224	0x3b45f93c	0.003020837
225	0xbe464c91	-0.19365145
226	0xbcd884e1	-0.02643055
227	0x3d962908	0.07332045
228	0xbc925b49	-0.017865794
229	0xbd5f9f2a	-0.05459515
230	0xbd386781	-0.045020584
231	0x3b8237ef	0.003973953
232	0xbd977d29	-0.07396919
233	0x3cfe5a4b	0.031048914
234	0xbd07de97	-0.033171263
235	0xbbfaf6c3	-0.007658811
236	0xbcda8b70	-0.026677817
237	0xbe227d44	-0.15868098
238	0xbbe52aaa	-0.0069936113
239	0xbc0ab599	-0.008466148
240	0xbcb8d6c5	-0.022563348
241	0xbc0ed8a0	-0.00871864
242	0xbdd896ac	-0.105756134
243	0xbcd6afc0	-0.026206851
244	0x3d7e78e4	0.06212701
245	0x3d0ce690	0.03439957
246	0x3d264987	0.040597465
247	0xbb97458f	-0.0046164463
248	0x3c352155	0.01105531
249	0x3d05936d	0.0326113
250	0xbd038b9f	-0.032115575
251	0x3b4a1a44	0.003083841
252	0xbdef4e75	-0.11684886
253	0xbcb2a679	-0.021807896
254	0x3c31ff54	0.010864098
255	0xbc11e731	-0.008905218

hope.b1 f4 [1024]
0	0x3d4168a5	0.047218937
1	0xbc85487f	-0.01626992
2	0xbb0451bd	-0.0020190321
3	0x3d797853	0.060905766
4	0xbdbbad93	-0.09163966
5	0x3dbd480c	0.092422575
6	0xbb352372	-0.0027639535
7	0xbdd56fb7	-0.104216985
8	0xbd39fc5c	-0.045406684
9	0x3d1f7c89	0.038937125
10	0xbcfb1a85	-0.030652294
11	0x3dcfdfed	0.10150132
12	0x3c188433	0.0093088625
13	0xbc257f5b	-0.010101165
14	0x3dd53942	0.10411312
15	0xbd047adb	-0.032343727
16	0xbd6aee10	-0.05735594
17	0x3c8ad77a	0.01694845
18	0xbda67939	-0.0812859
19	0x3d2d8034	0.042358592
20	0xbc3ccc15	-0.011523266
21	0x3b38ae04	0.0028179893
22	0xbc1b5457	-0.009480557
23	0x3c335454	0.010945398
24	0x3d66cf52	0.05635006
25	0x3c7ffc6d	0.015624148
26	0xbd33a2fa	-0.0438566
27	0x3cd22015	0.025650064
28	0x3c7b80b7	0.015350512
29	0xbc9bed34	-0.019034006
30	0xbc511815	-0.012762089
31	0xbb547cad	-0.0032422945
32	0xbc9ac5ab	-0.018893084
33	0xbb01b3d4	-0.0019791024
34	0x3c1f2162	0.009712549
35	0xbce881e2	-0.028382245
36	0xba59914e	-0.0008299545
37	0xbd000ab0	-0.031260192
38	0x3c4585de	0.012055842
39	0xbcabea33	-0.020985698
40	0xbd3044b1	-0.04303426
41	0xbb9b09a7	-0.0047313753
42	0x3d0b4eeb	0.03401081
43	0xbaee5f5d	-0.001818638
44	0xbbe221ea	-0.0069010155
45	0xbcc11366	-0.02356882
46	0x3d12f93f	0.03588223
47	0xbb36abce	-0.00278734
48	0xbbc9879c	-0.006150199
49	0xbb25eee5	-0.0025319394
50	0xbc5c6a1d	-0.013453034
51	0x3c2c4b16	0.010515949
52	0x3c59133d	0.013249216
53	0x3dc10873	0.0942544
54	0x3b00d28b	0.0019656743
55	0x3b8992f6	0.0041984273
56	0xbc507787	-0.01272381
57	0xbbaee621	-0.005337492
58	0x3c3c6fe0	0.011501282
59	0x3c30463f	0.0107589355
60	0x3c94ce57	0.018164797
61	0xbd470f11	-0.048598353
62	0xbe0b8f69	-0.13628925
63	0xbc99d63c	-0.018778913
64	0xbcf07122	-0.02935082
65	0x3b1e4c42	0.002415434
66	0xbd71072d	-0.058844734
67	0xbd7d5480	-0.061848164
68	0xbc7662ae	-0.0150381755
69	0xbd05f727	-0.032706406
70	0x3ca61517	0.020273728
71	0xbd070cc9	-0.032971177
72	0x3d963fda	0.073363975
73	0x3da25914	0.079271466
74	0xbcf248c6	-0.029575717
75	0x3b1cc6da	0.0023922236
76	0x3d43ba3c	0.04778503
77	0x3cd0d1a3	0.025490588
78	0x3c0c2637	0.008554033
79	0xbd053251	-0.03251869
80	0x3bfd814a	0.0077363597
81	0xbd81286b	-0.06306537
82	0xbc7930f6	-0.015209427
83	0x3cb00013	0.02148441
84	0x3c92ff4a	0.017943997
85	0xbae89f59	-0.0017747685
86	0x3c5f7124	0.013637815
87	0x3c9a43d3	0.01883117
88	0x3d3bd6b9	0.045859072
89	0x397941b5	0.00023770968
90	0xbc3a81c7	-0.01138348
91	0x3c95aaa2	0.01826984
92	0x3d25904e	0.040420823
93	0xbddb439f	-0.10706257
94	0xbd732390	-0.059360087
95	0x3bf4c448	0.0074696876
96	0x3c92fc6a	0.017942626
97	0xbbadfb90	-0.0053095296
98	0xbc32c73c	-0.010911759
99	0xbbd77968	-0.006575752
100	0xbc95137f	-0.018197773
101	0x3d8a988d	0.06767378
102	0x3c74f252	0.014950352
103	0x3bc23276	0.0059264256
104	0xba9b821e	-0.001186434
105	0xbd03758c	-0.032094523
106	0xbca5b7ad	-0.020229185
107	0xbbcefcd0	-0.0063167587
108	0xbada120f	-0.0016637462
109	0x3c333073	0.010936844
110	0xbc373609	-0.011182317
111	0x3beb57a9	0.0071820808
112	0xbc71c4c6	-0.014756387
113	0x3dc829e3	0.09773614
114	0x3a9ccb20	0.0011962391
115	0xbcaacbd0	-0.020849138
116	0x3bdb6c6e	0.0066962754
117	0xbe1d54b5	-0.15364344
118	0x3c641925	0.013922011
119	0xba4eeea6	-0.0007893838
120	0x3c9637f8	0.018337235
121	0x3c8ad72f	0.01694831
122	0xbbc09963	-0.00587766
123	0xbd66ab48	-0.05631569
124	0xbd06b409	-0.03288654
125	0x3ce75a4a	0.028241295
126	0x3d376652	0.044775315
127	0x3c9663c2	0.018358115
128	0x3d1e92a4	0.038714066
129	0xbd51fc44	-0.05126597
130	0xbba7bb4b	-0.0051187626
131	0xbcf29c96	-0.029615682
132	0x3cbfb786	0.02340294
133	0xbd30dfff	-0.04318237
134	0xbc1e3354	-0.009655792
135	0xbc69795f	-0.0142501285
136	0x3d88a5b8	0.06672233
137	0x3d4d72f8	0.05015847
138	0xbbf613ab	-0.007509669
139	0x3c31be8f	0.010848655
140	0x3c9225d6	0.017840307
141	0xbbc70645	-0.0060737454
142	0xbc09f0e8	-0.008419253
143	0xbd48923d	-0.04896759
144	0x3dbae89e	0.091263995
145	0xbd290c11	-0.041271273
146	0xbd612490	-0.05496651
147	0x3d018917	0.03162488
148	0x3d9c437f	0.07630061
149	0xbc1cb3f4	-0.009564389
150	0x3c341bff	0.010993003
151	0x3d14afa2	0.03630031
152	0xbd0a6d9d	-0.03379594
153	0x3d4047f5	0.046943624
154	0x3c55c48d	0.01304735
155	0xbc207aa7	-0.009794868
156	0x3d4a8a63	0.049448382
157	0x3d48f046	0.049057268
158	0x3d89925b	0.06717368
159	0x3b32f0ee	0.002730425
160	0x3c3ad102	0.01140237
161	0x3d852ae2	0.0650232
162	0xbbfeda08	-0.007777456
163	0xbd0f5a7a	-0.034998395
164	0xbb5cd7d2	-0.0033697975
165	0xbdc401f5	-0.09570686
166	0xbd60c124	-0.054871693
167	0xbbd8d4c3	-0.00661716
168	0x3ce0831a	0.027406264
169	0x3c9d1c16	0.019178431
170	0x3b5c0fb8	0.0033578705
171	0x3b7ae0f1	0.0038281048
172	0xbc5f32c5	-0.013622944
173	0xbc89baf1	-0.016812773
174	0x3ca312cd	0.019906426
175	0x3ba065bc	0.00489494
176	0x3b4a4224	0.0030862177
177	0x3c1a279a	0.009408856
178	0x37343657	1.0741488e-05
179	0xbac11c89	-0.0014733236
180	0xbcf149f5	-0.02945421
181	0x3dc53803	0.09629824
182	0xbc223ddc	-0.009902444
183	0x3d046aad	0.032328296
184	0xbc30a760	-0.010782093
185	0xbcfac76c	-0.03061267
186	0xbafe9341	-0.0019422547
187	0x3c9e91b6	0.01935659
188	0x3d5c5f33	0.053801727
189	0xbb5155cb	-0.0031942006
190	0xbcd69658	-0.026194736
191	0xbc8525f9	-0.016253458
192	0xbd753107	-0.05986121
193	0x3ceb178b	0.02869775
194	0x3b4ba16f	0.0031071564
195	0x3ce2d46f	0.027689187
196	0x3d989945	0.07451109
197	0x3d0a43ba	0.033755995
198	0x3c44b094	0.01200499
199	0xbb8482df	-0.0040439214
200	0x3d4bd23e	0.04976105
201	0x3c757cbb	0.014983351
202	0xbc1d37cc	-0.009595823
203	0x3b59d2fd	0.003323733
204	0xbaf647ee	-0.0018789747
205	0x3c10fb65	0.008849
206	0xbc5d828e	-0.013519896
207	0xbd51da09	-0.051233325
208	0xbcc079ba	-0.023495544
209	0x3db0f0d4	0.08639684
210	0x393f02bf	0.00018216202
211	0x3b4b5ecd	0.0031031847
212	0xbcf4aa7c	-0.02986645
213	0xbc1b2cf5	-0.009471168
214	0xbd6446d6	-0.055731617
215	0x3db200a2	0.08691527
216	0xbd214704	-0.039374366
217	0xbd6ffa4d	-0.058588315
218	0xbc7ed85b	-0.015554513
219	0xb9ddc3bc	-0.00042298238
220	0x3d04b621	0.032400254
221	0x3e17bcf4	0.14818174
222	0x3dac5a9d	0.084157206
223	0x3a80a8c6	0.0009815923
224	0xbb9749c6	-0.004616949
225	0x3d1897aa	0.037254013
226	0xbc166c71	-0.009181128
227	0x3d69b5bb	0.057058077
228	0x3b589af1	0.0033051337
229	0x3d532460	0.05154836
230	0x3cbae127	0.02281244
231	0x3c7f94f4	0.015599478
232	0x3d5afc08	0.053463012
233	0x3c4f1882	0.01264012
234	0x3cdf51a4	0.027260609
235	0x3cb1ff4e	0.021728184
236	0x3d711393	0.058856558
237	0x3d07a94d	0.033120442
238	0xbcb22d07	-0.021749986
239	0xbcb7dfb5	-0.022445539
240	0x3d2cce6c	0.042189047
241	0xbdf2ee85	-0.118619
242	0x3d0f46a3	0.034979474
243	0xbb763ba6	-0.0037572174
244	0xbca27e78	-0.019835696
245	0x3d983767	0.07432442
246	0x3c923947	0.017849578
247	0xbcfc824a	-0.030823845
248	0x3c6c72ca	0.014431665
249	0x3d1fdb42	0.03902746
250	0xbd3ae8d9	-0.045632217
251	0xbd003fc7	-0.031310823
252	0xbd212c31	-0.039348785
253	0xbc6b0370	-0.014344081
254	0xbd94c592	-0.07264246
255	0xbc098d6b	-0.008395533

hope.w2 f4 [64, 144]
0	0xbb3d334e	-0.0028869691
1	0x3e78a5f4	0.24282056
2	0xbdb8a965	-0.090166844
3	0xbd804557	-0.062632255
4	0xbf004ed5	-0.5012029
5	0xbd985f6b	-0.074400745
6	0x3e5fb2d3	0.2184556
7	0x3ec7ed41	0.39048198
8	0x3e509d98	0.20372617
9	0xbd50ff7d	-0.051024903
10	0x3e8942c3	0.26808748
11	0x3e8eeff7	0.27917454
12	0xbde64b21	-0.112447985
13	0xbe3d7758	-0.18502557
14	0x3e014302	0.12623218
15	0xbe1f0ab2	-0.15531424
16	0xbdfd002e	-0.1235355
17	0xbd95e5a2	-0.073191896
18	0x3d563929	0.052300606
19	0x3d34568c	0.04402785
20	0xbd039846	-0.03212764
21	0x3e5ca29c	0.21546406
22	0x3e20b1ce	0.15692827
23	0xbe6b330e	-0.22968695
24	0x3cfaa3ab	0.030595621
25	0xbdb5c951	-0.08876289
26	0xbe957b5b	-0.29195675
27	0x3d9587d8	0.07301301
28	0x3eac6b4e	0.33675617
29	0x3e0229c8	0.12711251
30	0x3e96249d	0.2932481
31	0xbe5de462	-0.21669152
32	0xbd25dcd4	-0.0404938
33	0xbbd81c08	-0.0065951385
34	0xbd9fc334	-0.07800904
35	0xbe9934b3	-0.2992302
36	0x3cc47e12	0.023985896
37	0x3e725ddc	0.23668617
38	0xbdededac	-0.11617598
39	0xbc6d9d95	-0.0145029025
40	0xbdbfc153	-0.093630455
41	0xbd323130	-0.04350394
42	0x3d91b386	0.071143195
43	0xbd9d3afc	-0.07677266
44	0x3dc40aba	0.095723584
45	0xbd813704	-0.063093215
46	0xbe8a38c1	-0.26996425
47	0xbeacf786	-0.33782595
48	0xbe002897	-0.12515484
49	0x3eb78f35	0.35851446
50	0xbe4165ca	-0.18886486
51	0x3dc8b8df	0.09800886
52	0x3daf069d	0.08546183
53	0x3e2971d6	0.16547331
54	0x3b2c8f0c	0.002633038
55	0x3d7bd2d7	0.06148037
56	0x3e2e6fd9	0.17034854
57	0xbe1735a0	-0.1476655
58	0x3d96aab1	0.073567756
59	0x3d527b5e	0.051387183
60	0xbe0eb5f2	-0.13936594
61	0x3d6afabe	0.057368033
62	0x3c26b19a	0.010174179
63	0x3e4570d6	0.19281325
64	0x3d8c495d	0.068499304
65	0xbd30c40f	-0.043155726
66	0x3bc7580c	0.006083494
67	0xbdda5636	-0.10660975
68	0x3da87630	0.082256675
69	0xbe0110bc	-0.1260404
70	0x3d3124ee	0.04324811
71	0x3dd1642a	0.10224183
72	0xbea9aa47	-0.33137724
73	0xbe2615c2	-0.16219237
74	0xbc121325	-0.008915697
75	0xbe1fccdd	-0.15605493
76	0xbc80161d	-0.015635544
77	0x3e812ba8	0.2522862
78	0xbd31a310	-0.0433684
79	0x3e067bf6	0.13133225
80	0x3e6ed0a6	0.2332178
81	0x3d96f53d	0.07370994
82	0xbd8b9434	-0.06815377
83	0xbe41a689	-0.18911184
84	0x3dbbe7a4	0.09175041
85	0x3ce99944	0.028515466
86	0xbe09230d	-0.13392277
87	0x3d6387dd	0.05554949
88	0xbd85f1f7	-0.06540292
89	0xbd071a50	-0.032984078
90	0x3cf77435	0.030206779
91	0xbd677902	-0.056511886
92	0xbd980c69	-0.07424242
93	0x3e611d41	0.21983816
94	0x3e19bff7	0.15014635
95	0x3d369f74	0.04458566
96	0x3dbfe97b	0.09370705
97	0xbe4bb051	-0.19891478
98	0xbe615cbc	-0.22008032
99	0xbd8e67e2	-0.06953408
100	0xbb8f33e3	-0.004370199
101	0xbe19dc76	-0.15025505
102	0xbe32568f	-0.17415832
103	0x3db552cc	0.08853683
104	0xbccb5138	-0.024819002
105	0xbb8868cb	-0.004162883
106	0x3db5fe9c	0.088864535
107	0x3e568d7b	0.20952408
108	0xbe76b034	-0.24090654
109	0xbcc58562	-0.024111453
110	0x3dadd972	0.0848874
111	0xbcc69f28	-0.024245813
112	0xbebd1006	-0.36926287
113	0x3d1ff0b0	0.039047897
114	0x3e5fd97a	0.21860304
115	0x3e4e824b	0.2016689
116	0x3ddaecff	0.10689735
117	0xbd97d143	-0.074129604
118	0xbebbfb14	-0.36714995
119	0xbd8c653c	-0.068552464
120	0xbde4b77f	-0.111678116
121	0x3e812b3d	0.252283
122	0x3cf99528	0.030466631
123	0xbdf87952	-0.12132515
124	0x3debaa61	0.115071066
125	0x3e32c80b	0.17459123
126	0xbe146327	-0.14490949
127	0x3e77d66b	0.24202888
128	0x3e9ddb16	0.30831212
129	0xbea36c23	-0.3191844
130	0xbe555cb7	-0.20836149
131	0x3db6d951	0.089281686
132	0x3e08e8be	0.13370034
133	0x3dc6d033	0.097076796
134	0xbe0f5408	-0.13996899
135	0x3dd9890b	0.10621842
136	0xbcda2a4f	-0.026631502
137	0xbead3cdf	-0.33835503
138	0xbe3826e3	-0.17983584
139	0x3bd80369	0.0065922034
140	0xbd40fc02	-0.047115333
141	0x3d9d2cd5	0.07674567
142	0x3dc43262	0.09579922
143	0x3e0fa29b	0.14026873
144	0x3d075807	0.033042934
145	0x3c89da98	0.016827866
146	0x3e02a8e7	0.12759744
147	0xbddeff82	-0.10888578
148	0xbe1f7eb8	-0.15575683
149	0x3c830946	0.015995633
150	0x3de24b61	0.11049534
151	0x3d07a095	0.033112127
152	0x3b72fbd1	0.0037076364
153	0xbe0a4a95	-0.13505013
154	0x3c8e215e	0.017349895
155	0x3d007779	0.031363938
156	0xbda402dc	-0.08008358
157	0x3e0c6369	0.13709797
158	0x3db6b28f	0.08920776
159	0xbb958bad	-0.00456377
160	0x3d4e812e	0.050416164
161	0xbe523bbb	-0.20530598
162	0x3da01ed2	0.078183785
163	0x3d7136fc	0.058890328
164	0x3dbfe96a	0.09370692
165	0x3db70be5	0.089378156
166	0xbf1a32cd	-0.60233766
167	0x3d0cfe8e	0.03442245
168	0x3d19a5c9	0.03751162
169	0x3e92be8a	0.28660995
170	0x3db422ba	0.08795686
171	0xbd400228	-0.046877056
172	0xbc8f921f	-0.01752573
173	0xbd5b79a1	-0.05358279
174	0xbd70e82a	-0.05881516
175	0x3e76ebd9	0.24113406
176	0xbd2af6b4	-0.04173918
177	0x3d7e00f8	0.062012643
178	0xbdb35f7e	-0.08758448
179	0xbd2cb8d5	-0.042168457
180	0x3d196ee1	0.037459258
181	0x3d4434e9	0.04790202
182	0xbe582716	-0.2110866
183	0x3c9b11f5	0.018929461
184	0x3d50ace8	0.050946146
185	0x3cb62f57	0.02223937
186	0xbd099493	-0.033588957
187	0x3cb46413	0.022020375
188	0xbc1b3d36	-0.009475043
189	0xbd46b92a	-0.04851643
190	0xbdb23527	-0.08701544
191	0xbd00b8a6	-0.031426094
192	0x3e27f5b2	0.16402319
193	0x3cb9e163	0.02269048
194	0xbc9858f1	-0.018597098
195	0xbdeb04a8	-0.114754975
196	0x3d8f4c48	0.06996971
197	0x3d0262a0	0.031832337
198	0xbd1b0ed5	-0.03785594
199	0x3cd20920	0.025639117
200	0xbd395c6a	-0.04525415
201	0x3d94cd2c	0.07265696
202	0x3ddc6daa	0.10763104
203	0xbdd3e210	-0.103458524
204	0x3d4d94b3	0.05019064
205	0xbc3d5c0b	-0.011557589
206	0xbdcd9eff	-0.10040092
207	0x3dc42d33	0.095789336
208	0x3d6ecbab	0.0582997
209	0xbdf49769	-0.11942942
210	0xbcb1dd18	-0.021711871
211	0xbdd61ebb	-0.1045508
212	0x3db2a9e1	0.08723808
213	0xbca50970	-0.020146102
214	0x3c8cfb66	0.01720972
215	0x3a19e6e7	0.0005870894
216	0xbd157574	-0.036488965
217	0x3da1ee80	0.079068184
218	0x3e2ad68a	0.16683403
219	0xbe49c0a9	-0.197024
220	0x3e5152f0	0.20441794
221	0x3de56a85	0.112019576
222	0xbda4c219	-0.08044834
223	0xbe68af71	-0.22723176
224	0xbd64b551	-0.05583698
225	0xbe130b83	-0.1435986
226	0xbd004e06	-0.03132441
227	0xbdedaf91	-0.11605752
228	0xbd9456b2	-0.07243098
229	0x3ee3ec7c	0.4451636
230	0xbdc9eed5	-0.09860007
231	0x3dd73e81	0.105099685
232	0xbb85248b	-0.004063194
233	0xbd8e44b4	-0.06946698
234	0x3de74879	0.1129312
235	0x3cfe3061	0.031028928
236	0x3d166d88	0.03672555
237	0xbc2ad105	-0.010425811
238	0xbd3f0470	-0.04663509
239	0x3d2dac3e	0.04240059
240	0xbd756551	-0.059911076
241	0xbdc3bda5	-0.09557656
242	0x3d9e514f	0.07730352
243	0x3de0c325	0.10974721
244	0x3dc95700	0.09831047
245	0x3dde9b45	0.10869459
246	0x3de35c26	0.1110156
247	0xbeae169f	-0.34001634
248	0xbc5216c5	-0.0128228115
249	0xbd3f79a9	-0.046746884
250	0x3d2542f2	0.040347047
251	0xbd4ac0a7	-0.049500134
252	0x3baae50b	0.0052152923
253	0x3ca7fa3b	0.020505061
254	0x3d1713b9	0.036884043
255	0x3cfa3cd8	0.03054659

hope.b2 f4 [144]
0	0xbd3a5e62	-0.045500167
1	0xbd92b1c0	-0.07162809
2	0xbcbc616c	-0.022995673
3	0xbcfc36e0	-0.030787885
4	0xbd88001b	-0.06640645
5	0xbbda92fe	-0.006670355
6	0xbc83f8db	-0.016109874
7	0xbd5a6097	-0.05331477
8	0x3baa8563	0.005203889
9	0x3d3be38f	0.045871314
10	0x3d8e2f14	0.06942573
11	0x3bf63726	0.0075138984
12	0x3ce06d91	0.027395995
13	0x3d62a068	0.055328757
14	0x3d431bc8	0.047633916
15	0x3d0f002f	0.034912284
16	0x3d2b48f0	0.041817605
17	0x3d4730f3	0.048630666
18	0x3b8aeb28	0.0042394586
19	0xbcece39f	-0.028917132
20	0xbbf1a083	-0.007373871
21	0xbbf56285	-0.007488551
22	0x3bff091d	0.007783069
23	0xbd71e8dd	-0.059059966
24	0x3cd1a745	0.025592456
25	0xbc1b7531	-0.00948839
26	0xbd44f374	-0.048083737
27	0xbd3ac059	-0.045593593
28	0xbd5c9efd	-0.05386256
29	0xbc99807d	-0.018738026
30	0x3c32d15b	0.010914172
31	0xbd201b43	-0.0390885
32	0x3c13373f	0.00898534
33	0x3cf6fdca	0.030150313
34	0x3c9f9435	0.01947985
35	0x3c64fe4e	0.013976647
36	0xbd377cb0	-0.044796646
37	0x3cec1f0f	0.028823404
38	0xba249308	-0.0006278013
39	0xbd98d36c	-0.074622005
40	0x3d4545a8	0.048162133
41	0xbca9b98a	-0.020718355
42	0xbd46905d	-0.04847752
43	0x3c9abbc1	0.018888356
44	0xbcfe80c6	-0.031067263
45	0x3c220c5f	0.009890645
46	0x3d394dfe	0.045240395
47	0xbcc31ea0	-0.023818314
48	0x3d7752eb	0.06038181
49	0x3d88be6e	0.066769466
50	0xbb260b48	-0.0025336314
51	0xbc9a6f35	-0.018851856
52	0xbc90cdb9	-0.017676221
53	0xbd1c8c3f	-0.038219687
54	0xbc30bf06	-0.010787731
55	0x3cd7767a	0.026301611
56	0x3d5063cd	0.050876427
57	0x3c8ff1a2	0.017571274
58	0x3cb3d990	0.021954328
59	0x3c6e05f5	0.014527787
60	0x3d42df8b	0.04757647
61	0x3d975467	0.07389145
62	0x3d667a31	0.056268875
63	0xbcc77480	-0.024347544
64	0x3b30ec4e	0.0026996317
65	0xbc16f6c3	-0.009214106
66	0xbda64278	-0.08118147
67	0xbceec126	-0.029144835
68	0xbd36bb3d	-0.044612158
69	0xbcb45ec6	-0.022017848
70	0xbd82f42e	-0.0639423
71	0xbc8cc7de	-0.017185148
72	0x3cb1210b	0.021622201
73	0x3d664731	0.056220237
74	0x3d4a61d5	0.049409706
75	0x3c9abaa4	0.018887825
76	0x3c6c48df	0.014421671
77	0x3bd1992d	0.006396434
78	0xbcf78a8d	-0.030217433
79	0x3b8e1573	0.004336053
80	0xbd15575a	-0.036460258
81	0xbc569877	-0.013097874
82	0xbd7e83ea	-0.06213752
83	0xbce48e57	-0.027899904
84	0x3cbaee42	0.022818688
85	0xbd1450b0	-0.036209762
86	0xbb9bc65d	-0.0047538714
87	0xbd670186	-0.056397937
88	0xbcdf32ae	-0.027245846
89	0xbd1c2ad6	-0.03812679
90	0xbd8384d9	-0.06421823
91	0xbd86d777	-0.065840654
92	0xbd284404	-0.04108049
93	0xbc8dc266	-0.01730461
94	0xbdaeb718	-0.08531016
95	0xbd4b8bca	-0.04969386
96	0x3b2ad324	0.002606579
97	0xbd3542ae	-0.044253044
98	0x3a387139	0.00070359145
99	0xbc2bdea6	-0.010490095
100	0x3c1817af	0.00928299
101	0xbbac7b0b	-0.0052636913
102	0x3b4c0084	0.0031128237
103	0x3d17353b	0.036916
104	0xba9d5b4c	-0.0012005358
105	0x3bc2c531	0.005943917
106	0xbc544d77	-0.012957922
107	0xbba63e3f	-0.0050733383
108	0x3a942474	0.0011302368
109	0x3d020ac5	0.031748552
110	0xbbeddc21	-0.0072589074
111	0x3d0e6d5d	0.034772266
112	0xbcb0dc3e	-0.021589395
113	0xbcd45b06	-0.02592231
114	0xbc57e929	-0.013178148
115	0xbccac1f0	-0.02475068
116	0x3ca42187	0.020035518
117	0xbcc3d47e	-0.023905035
118	0xbc824831	-0.015903564
119	0xbd4c9fcb	-0.049957078
120	0x3bcb16ed	0.0061978013
121	0xbcc19faf	-0.023635713
122	0xbd0d3fb6	-0.034484588
123	0xbd1198dd	-0.035546172
124	0x3a8b7028	0.0010638284
125	0xbd398901	-0.045296673
126	0x3c382d36	0.011241248
127	0xbc9d7786	-0.019222032
128	0x3bea8626	0.007157105
129	0x3c493bce	0.012282325
130	0xbac3b6c9	-0.0014931794
131	0x3c2bb6db	0.010480608
132	0x3bde76a6	0.0067890463
133	0x3a807a8a	0.0009802144
134	0x3c45834d	0.01205523
135	0xbd821c0a	-0.06353004
136	0xbba9512e	-0.005167148
137	0x3d0b13cc	0.033954427
138	0xbca3aabe	-0.019978877
139	0xbd6a9b2b	-0.057276886
140	0x39d50e93	0.00040637385
141	0xbd033aec	-0.032038614
142	0xbd0fd033	-0.035110664
143	0xbc7bf106	-0.015377289

res_net.0.bn1.weight f4 [16]
0	0x3e7f33a2	0.2492204
1	0x3e3636f0	0.17794394
2	0x3e759428	0.23982298
3	0x3e8605f4	0.26176417
4	0x3e6680f2	0.22510126
5	0x3e626e76	0.2211245
6	0x3e920113	0.28516445
7	0x3f0c000f	0.5468759
8	0x3e7672f2	0.24067286
9	0x3e8daea4	0.27672303
10	0x3ea03bbe	0.3129558
11	0x3ea3e2d9	0.3200901
12	0x3e5f1953	0.21787004
13	0x3e318671	0.17336442
14	0x3e3c5d41	0.18394949
15	0x3e92065c	0.28520477

res_net.0.bn1.bias f4 [16]
0	0xbe0543c9	-0.13014139
1	0x3e895de8	0.26829457
2	0x3dca5142	0.0987878
3	0xbcb56ae5	-0.022145698
4	0x3d91568f	0.07096588
5	0x3d23b97a	0.039971806
6	0xbde9d0f8	-0.11416811
7	0xbf04306c	-0.51636386
8	0x3d01e8ab	0.03171603
9	0x3eb1d8e5	0.3473579
10	0xbe023f4e	-0.12719461
11	0x3e23cc3a	0.15995875
12	0x3e567e5b	0.20946638
13	0x3dfd900e	0.12380992
14	0x3e193cca	0.14964595
15	0xbe396f2f	-0.1810882

res_net.0.bn1.running_mean f4 [16]
0	0x401e4599	2.472998
1	0xc060e0ea	-3.5137277
2	0xbfc754d5	-1.5572764
3	0xbfe2aea0	-1.7709541
4	0xbfb0314c	-1.3765044
5	0xbf33d83f	-0.7025184
6	0xc00e6de6	-2.2254577
7	0x3fee56db	1.8620256
8	0xbed5eb6f	-0.41781184
9	0xbf29aa4c	-0.6627548
10	0xbf9ef386	-1.2418067
11	0xc0325a00	-2.7867432
12	0xc01d7026	-2.45997
13	0xbf12d66a	-0.5735842
14	0xbf812a06	-1.009095
15	0xbea07c6c	-0.31344926

res_net.0.bn1.running_var f4 [16]
0	0x3fac9e1d	1.3485752
1	0x3fb8c5ef	1.4435405
2	0x3fd3d4c4	1.6549306
3	0x4001d90c	2.0288725
4	0x3fc1a292	1.5127738
5	0x4006d956	2.1070151
6	0x3fbffa0e	1.4998186
7	0x3f9161bc	1.1357951
8	0x3fdbc231	1.7168638
9	0x3ff6f884	1.9294591
10	0x3f9d0be0	1.2269249
11	0x40aaae1a	5.3337526
12	0x40488120	3.1328812
13	0x3f6069aa	0.8766123
14	0x3f9dd0cd	1.2329346
15	0x3f420369	0.75786453

res_net.0.bn2.weight f4 [16]
0	0x3e9e915b	0.30970272
1	0x3e88f738	0.26751113
2	0x3eaac582	0.33353812
3	0x3e8e6152	0.27808625
4	0x3e30f15a	0.17279568
5	0x3ea215e7	0.31657335
6	0x3e471d7d	0.19444843
7	0x3d63ec67	0.055645373
8	0x3e73d3b0	0.23811221
9	0x3eb93c72	0.3617893
10	0x3e864cbd	0.26230422
11	0x3ec4f824	0.38470566
12	0x3e6746bc	0.22585577
13	0x3eb8ec20	0.3611765
14	0x3e752939	0.23941506
15	0x3eaff2b5	0.34364858

res_net.0.bn2.bias f4 [16]
0	0x3dee1e55	0.11626879
1	0x3eb51974	0.35370982
2	0x3e279c44	0.16368204
3	0x3e0f300e	0.13983175
4	0x3e48c578	0.19606578
5	0x3e554a23	0.20829062
6	0x3d99fc3c	0.07518813
7	0x3d0adbd3	0.033901047
8	0x3e2239f7	0.15842424
9	0xbd06894e	-0.032845788
10	0xbd1e4c15	-0.038646776
11	0x3d279e3d	0.040922392
12	0xbe08880b	-0.13333146
13	0x3e0f798e	0.14011213
14	0xbe31db5c	-0.17368835
15	0x3e0f4a65	0.13993223

res_net.0.bn2.running_mean f4 [16]
0	0xbda0fdba	-0.078608945
1	0xbf8e4e50	-1.1117649
2	0xbf3907a3	-0.7227728
3	0xbf744123	-0.9541189
4	0x3eb077f5	0.3446652
5	0x3d220ae8	0.039561182
6	0xbf0c413c	-0.5478704
7	0x3cc0f0bd	0.023552293
8	0xbf1de2d1	-0.6167422
9	0xbe3db96b	-0.18527763
10	0xbe3f5f4a	-0.18688694
11	0x3f178539	0.59187657
12	0xbdc5ee4b	-0.096645914
13	0xbd8e92c5	-0.06961588
14	0x3dfb517c	0.12271401
15	0xbe1d8ff5	-0.15386946

res_net.0.bn2.running_var f4 [16]
0	0x3f1bb481	0.608223
1	0x3f01ce1e	0.50705135
2	0x3f1bcfdb	0.6086404
3	0x3ed3aebe	0.41344255
4	0x3f0d0d7f	0.5509872
5	0x3f28a89c	0.6588228
6	0x3e8db59a	0.27677613
7	0x3e9ec655	0.3101069
8	0x3ebe36d8	0.37151217
9	0x3f1f738e	0.622857
10	0x3ec073e1	0.3758841
11	0x3f5ee7ed	0.8707264
12	0x3f38bbf9	0.72161824
13	0x3f24d3cb	0.6438567
14	0x3e9f1bd8	0.3107593
15	0x3f1b908f	0.60767454

res_net.1.bn1.weight f4 [16]
0	0x3e933b05	0.28755966
1	0x3e7d3fe4	0.24731404
2	0x3e95cacc	0.29256284
3	0x3e708636	0.23488697
4	0x3ebb303f	0.36560246
5	0x3e8dbb9d	0.276822
6	0x3e8cf02d	0.2752699
7	0x3eabe420	0.33572483
8	0x3ea3becc	0.31981504
9	0x3e1c994e	0.15292856
10	0x3e857f00	0.26073456
11	0x3e867572	0.2626148
12	0x3eaed01f	0.3414316
13	0x3e914e4e	0.28380054
14	0x3ebdd6b6	0.37077874
15	0x3e83907f	0.2569618

res_net.1.bn1.bias f4 [16]
0	0xbe4730df	-0.19452237
1	0x3e016e7c	0.12639803
2	0x3e87cbce	0.26522678
3	0x3d2468d9	0.040139053
4	0xbcfd76a8	-0.030940369
5	0xbe41b2e0	-0.18915892
6	0xbe0c499d	-0.13699956
7	0xbef21d86	-0.4728815
8	0xbe01d6b7	-0.12679563
9	0x3d9149d3	0.07094159
10	0xbddb9550	-0.107218385
11	0x3e37cddd	0.17949624
12	0xbd74c300	-0.05975628
13	0xbe22d181	-0.15900232
14	0xbeb9969a	-0.36247712
15	0xbdf049dd	-0.11732838

res_net.1.bn1.running_mean f4 [16]
0	0x3f16a69a	0.58847964
1	0xbf538847	-0.8262982
2	0xbbfc51d2	-0.0077001834
3	0xc003ba24	-2.0582361
4	0x3dff3d01	0.124628074
5	0xc0286f82	-2.631806
6	0x3fd4613a	1.6592171
7	0x3f5a926a	0.8537966
8	0xbfec6fcd	-1.8471619
9	0x3f09bca3	0.5380346
10	0xbeafb9d9	-0.34321478
11	0x3d425e9d	0.04745351
12	0xbf9464e0	-1.1593285
13	0x3e30e749	0.17275728
14	0xbe39bece	-0.18139192
15	0x3fff1681	1.9928743

res_net.1.bn1.running_var f4 [16]
0	0x4009d72a	2.1537576
1	0x408be973	4.372247
2	0x4050befd	3.261657
3	0x4012a2a0	2.2911758
4	0x4105651f	8.337188
5	0x402c046d	2.6877701
6	0x403563cf	2.8342168
7	0x4008aeec	2.1356764
8	0x401f7978	2.4917889
9	0x3fe769b7	1.8079137
10	0x40268dea	2.6024117
11	0x4040f424	3.0149012
12	0x40c0afb9	6.0214505
13	0x3fd74fed	1.6821266
14	0x3ffa41c5	1.9551321
15	0x400c6387	2.1935747

res_net.1.bn2.weight f4 [16]
0	0x3ebb55a7	0.36588785
1	0x3e40a88e	0.18814299
2	0x3e7344d8	0.2375673
3	0x3eacd78e	0.33758205
4	0x3e521d79	0.20519055
5	0x3e3e3375	0.18574317
6	0x3e664c7c	0.22490114
7	0x3e130719	0.14358176
8	0x3eae20dd	0.34009448
9	0x3e6ab0b6	0.22918972
10	0x3e3f335e	0.18671939
11	0x3e5d01c3	0.21582703
12	0x3ebf98d0	0.37421274
13	0x3eaae302	0.33376318
14	0x3e9d45ed	0.30717412
15	0x3e526715	0.20547135

res_net.1.bn2.bias f4 [16]
0	0x3cc5bcf8	0.024137959
1	0x3cacd5c4	0.021098025
2	0x3e5d27ba	0.21597186
3	0xbce8f51b	-0.028437188
4	0x3db26b1b	0.08711835
5	0x3e6d478e	0.23171827
6	0xbdc51e38	-0.096249044
7	0x3cec5361	0.028848352
8	0x3d485c06	0.048915885
9	0x3da6fec3	0.08154061
10	0x3a67a671	0.00088367524
11	0x3d5585c8	0.052129537
12	0xbc96a195	-0.018387595
13	0x3e834de4	0.25645363
14	0x3e2f57c8	0.1712333
15	0x3e65ce24	0.22441918

res_net.1.bn2.running_mean f4 [16]
0	0xbe280cb3	-0.16411094
1	0xbe9c4f94	-0.30529463
2	0xbea93c6f	-0.3305392
3	0xbea97fa3	-0.33105192
4	0x3ef53df0	0.47898817
5	0xbe82d319	-0.2555168
6	0xbf0219fb	-0.50820893
7	0xbe664e98	-0.22490919
8	0xbec74ede	-0.38927358
9	0xbe2b016f	-0.16699766
10	0x3e74e1e7	0.239143
11	0x3e5ad260	0.21369314
12	0xbf0c36ba	-0.54771006
13	0x3f0eb3eb	0.55743283
14	0xbe714b9d	-0.23564
15	0x3ee1d779	0.44109705

res_net.1.bn2.running_var f4 [16]
0	0x3f01e622	0.5074178
1	0x3e4a7b90	0.19773698
2	0x3e8923b9	0.26785067
3	0x3ef2a0f6	0.47388428
4	0x3eb86bf7	0.3601987
5	0x3ecd9718	0.40154338
6	0x3e2d2c48	0.16911423
7	0x3e95d8db	0.2926701
8	0x3ea665cd	0.32499543
9	0x3ebaf1bf	0.36512563
10	0x3e303d06	0.17210779
11	0x3ea83e9e	0.32860273
12	0x3edf4174	0.43604624
13	0x3f019e75	0.5063241
14	0x3ec4a986	0.38410586
15	0x3e9b5aed	0.30342808

res_net.2.bn1.weight f4 [16]
0	0x3ea93ae5	0.33052745
1	0x3ea87249	0.32899693
2	0x3e7af6e4	0.24508244
3	0x3e4c9180	0.19977379
4	0x3e8d8749	0.27642277
5	0x3e7408ed	0.2383153
6	0x3ed8afec	0.42321718
7	0x3ec34c48	0.38144135
8	0x3e57626d	0.2103364
9	0x3e8577f8	0.2606809
10	0x3e990aa4	0.2989093
11	0x3ec78de0	0.3897543
12	0x3e823a00	0.25434875
13	0x3e8c4dfb	0.27403244
14	0x3e37508f	0.17901824
15	0x39c76005	0.00038027778

res_net.2.bn1.bias f4 [16]
0	0xbe2bd4ef	-0.16780446
1	0xbe463f18	-0.19360006
2	0x3de1866b	0.11011966
3	0xbcd24dd6	-0.02567188
4	0xbda61342	-0.08109142
5	0xbdb1a61f	-0.08674263
6	0xbd593155	-0.053025562
7	0xbd83c741	-0.06434489
8	0xbdb6c6ec	-0.0892466
9	0x3e128765	0.14309461
10	0xbe619b54	-0.22031909
11	0xbe76b3ca	-0.24092022
12	0xbdba4b43	-0.09096386
13	0xbe367a06	-0.17819986
14	0x3d958c85	0.073021926
15	0xbc5acc17	-0.013354323

res_net.2.bn1.running_mean f4 [16]
0	0xbf3ad1b1	-0.72976214
1	0xbfeaa259	-1.8330795
2	0x3f650e7e	0.8947524
3	0xbfaccd3d	-1.3500134
4	0xbf125057	-0.5715384
5	0xc036aecb	-2.8544185
6	0x3e239c52	0.159776
7	0x3e9a4410	0.30130053
8	0xc05102ef	-3.265804
9	0x3f831ed9	1.0243789
10	0x3fa2e2f0	1.2725506
11	0xbe3ce9a0	-0.18448496
12	0xc00ac61e	-2.168342
13	0x3e222084	0.15832716
14	0xc0214360	-2.5197372
15	0xbfa08cf2	-1.2543013

res_net.2.bn1.running_var f4 [16]
0	0x4084d3dc	4.1508617
1	0x4097fa3b	4.7492957
2	0x4070f400	3.7648926
3	0x4026dc45	2.6071942
4	0x408aee47	4.3415866
5	0x4073fed0	3.8124275
6	0x418c25c6	17.518444
7	0x413170b1	11.090013
8	0x404181b4	3.0235415
9	0x4088300b	4.2558646
10	0x408f1ecd	4.47251
11	0x40af4e9c	5.478346
12	0x4042f3bf	3.046127
13	0x4034ed70	2.826992
14	0x405c71e9	3.4444525
15	0x3f005655	0.5013173

res_net.2.bn2.weight f4 [16]
0	0x3ea5d061	0.32385543
1	0x3dda4590	0.10657799
2	0x3e447869	0.19186558
3	0x3e38b698	0.18038404
4	0x3daa0533	0.08301773
5	0x3e959c36	0.29220742
6	0x3e889bed	0.26681462
7	0x3e8d20d5	0.2756411
8	0x3ca7151e	0.020395812
9	0x3e2932d6	0.16523299
10	0x3e3aaefd	0.18230815
11	0x3d82de82	0.06390096
12	0x3ec35574	0.38151133
13	0x3e98e727	0.29863855
14	0x3ed1f42d	0.41006604
15	0x3df0ea50	0.117634416

res_net.2.bn2.bias f4 [16]
0	0xbdd26f7d	-0.10275171
1	0x3e1b5a2c	0.15171117
2	0x3db13863	0.08653333
3	0x3cd5ad15	0.026083509
4	0x3d12cb29	0.03583828
5	0x3e131e84	0.1436711
6	0x3e169e4e	0.14708826
7	0x3e489efb	0.19591896
8	0xbe0cb19a	-0.13739625
9	0x3dda6a3c	0.10664794
10	0x3e3e95d2	0.1861184
11	0x3e085813	0.13314848
12	0xbd1ed8c6	-0.03878095
13	0x3e58b017	0.21160923
14	0x3d10b53e	0.035329096
15	0x3dd7ae31	0.10531271

res_net.2.bn2.running_mean f4 [16]
0	0xbee126dd	-0.43974963
1	0xbd9e1076	-0.077179834
2	0xbf0d6f6e	-0.55248153
3	0xbe89f2cb	-0.2694305
4	0x3e876f10	0.2645192
5	0xbf8c3dfe	-1.0956419
6	0xbf15a662	-0.58457005
7	0x3f32b97e	0.6981429
8	0xbe28d2fd	-0.16486736
9	0x3ef37a1d	0.47554103
10	0xbdb891f1	-0.09012211
11	0x3e029ab0	0.12754321
12	0xbec9b17d	-0.39393225
13	0x3e826ef8	0.25475287
14	0xbf06e4ee	-0.5269307
15	0xbe802a98	-0.25032496

res_net.2.bn2.running_var f4 [16]
0	0x3e2dc8a7	0.16971074
1	0x3e02f24a	0.12787738
2	0x3df6a463	0.12043073
3	0x3e49f1f5	0.19721206
4	0x3dec8a44	0.115498096
5	0x3ec219a4	0.37910187
6	0x3e29d829	0.16586365
7	0x3e99ba15	0.30024782
8	0x3d7759b4	0.060388282
9	0x3e6ca64a	0.23110309
10	0x3e35cd41	0.1775408
11	0x3e123669	0.14278568
12	0x3e642931	0.22281338
13	0x3ea08f22	0.31359202
14	0x3e8982a2	0.26857477
15	0x3e0129e6	0.12613639

res_net.3.bn1.weight f4 [16]
0	0x3ed58ceb	0.41709074
1	0x3e54874c	0.20754737
2	0x3e8155a8	0.25260663
3	0x3e401733	0.1875885
4	0x3e05aeab	0.13054912
5	0x3e779ad3	0.24180155
6	0x3e87d525	0.26529804
7	0x3e3b50d4	0.18292552
8	0x3e55939d	0.20857091
9	0x3e37318a	0.17889991
10	0x3ed0ddea	0.40794307
11	0x3ed6f62c	0.4198469
12	0x3e8b009c	0.27148902
13	0x3ec16abb	0.3777674
14	0x3e726972	0.23673037
15	0x3e8f11ce	0.2794327

res_net.3.bn1.bias f4 [16]
0	0xbe14c4ea	-0.14528242
1	0xbe36d4d1	-0.1785462
2	0xbd60e938	-0.054909915
3	0xbd83d6af	-0.06437432
4	0xbdeb607f	-0.114930145
5	0xbda537cd	-0.08067284
6	0xbda61644	-0.081097156
7	0xbce08ed1	-0.02741185
8	0xbd088d68	-0.03333798
9	0x3d49750c	0.04918389
10	0xbe61cd91	-0.22051074
11	0xbe24e785	-0.16103943
12	0xbdf54dfd	-0.11977766
13	0xbee51062	-0.44739062
14	0xbddea8ec	-0.10872063
15	0xbe100a8f	-0.14066528

res_net.3.bn1.running_mean f4 [16]
0	0xbfc911ec	-1.5708594
1	0x3f3813a1	0.7190495
2	0x3ffc7327	1.9722642
3	0xbe39c7a8	-0.18142569
4	0xbf4a59f3	-0.790435
5	0xbfa10907	-1.258088
6	0xbf69f909	-0.9139562
7	0xbe588c96	-0.2114738
8	0xbe8af30f	-0.27138564
9	0x3f86eaff	1.0540465
10	0x3e2a237f	0.16615103
11	0xbff8d2c5	-1.9439322
12	0xbe5deb2e	-0.21671745
13	0x3fee70e7	1.8628205
14	0x4013511f	2.3018262
15	0xbfedcba1	-1.8577768

res_net.3.bn1.running_var f4 [16]
0	0x41816d1a	16.178272
1	0x40502722	3.2523885
2	0x40a8d8b2	5.276452
3	0x4008ed54	2.1394854
4	0x3f89591b	1.0730318
5	0x4056940f	3.3527868
6	0x40b2a10b	5.5821586
7	0x409554d0	4.666603
8	0x40588f25	3.3837368
9	0x407cfc44	3.952897
10	0x412ff185	10.996465
11	0x416be34a	14.7429905
12	0x40d3cbfe	6.6186514
13	0x402a70f0	2.6631432
14	0x4021b984	2.526948
15	0x406eed02	3.7332158

res_net.3.bn2.weight f4 [16]
0	0x3e977a2f	0.29585406
1	0x3e1faf3a	0.15594187
2	0x3e4ee1b9	0.20203294
3	0x3d44dd98	0.04806289
4	0x3d813615	0.063091435
5	0x3e339a3f	0.17539309
6	0x3e798733	0.2436798
7	0x3e23af09	0.1598474
8	0x3e8599b5	0.26093832
9	0xbc188dcb	-0.00931115
10	0x3ec526f0	0.3850627
11	0x3e107e9b	0.14110796
12	0x3e8225b1	0.2541938
13	0x3dc0e060	0.09417796
14	0x3edec466	0.43509215
15	0x3e2dea03	0.169838

res_net.3.bn2.bias f4 [16]
0	0xbe0247df	-0.12722729
1	0x3d4d7026	0.05015578
2	0x3d909e44	0.07061437
3	0x3d033fff	0.032043453
4	0x3c979776	0.01850484
5	0x3d4a390d	0.049370814
6	0x3def0901	0.11671639
7	0x3d9eb7b3	0.077498816
8	0x3c279c5b	0.010230149
9	0x3c8cbc1e	0.017179545
10	0x3b9a13c8	0.004702065
11	0x3dcc70c1	0.099824436
12	0x3d3343cc	0.043765828
13	0x3d068e28	0.032850415
14	0xbc2ee341	-0.010674299
15	0x3d87f5c2	0.066386715

res_net.3.bn2.running_mean f4 [16]
0	0xbd0c6fb8	-0.03428623
1	0xbe257815	-0.16159089
2	0x3e6818af	0.22665666
3	0x3d1863ee	0.037204675
4	0xbcf94b08	-0.030431286
5	0xbf2b6d7e	-0.66963947
6	0xbe791568	-0.24324572
7	0x3ebb8f6a	0.36632854
8	0xbed1439b	-0.4087189
9	0x3d703c33	0.05865116
10	0xbefaf72e	-0.49016708
11	0xbe563dda	-0.20922032
12	0xbe8e8ead	-0.27843228
13	0xbc3c6823	-0.0114994375
14	0x3e452bcf	0.19254993
15	0xbee14206	-0.43995684

res_net.3.bn2.running_var f4 [16]
0	0x3e17f2ba	0.14838687
1	0x3e1ef1ce	0.15521929
2	0x3e06345b	0.1310591
3	0x3d6b45d1	0.05743963
4	0x3d7284f3	0.05920882
5	0x3e883fab	0.26611075
6	0x3e1d5ed1	0.15368201
7	0x3e127502	0.14302447
8	0x3e022070	0.12707686
9	0x3cee91ef	0.029122321
10	0x3e594a65	0.21219786
11	0x3dcae1dc	0.099063605
12	0x3dbf3ae6	0.09337406
13	0x3da75a2e	0.08171497
14	0x3e55c979	0.20877637
15	0x3e20fd44	0.15721613

res_net.4.bn1.weight f4 [16]
0	0x3ed71d4f	0.42014548
1	0x3e32c0ba	0.17456332
2	0x3ebb627b	0.36598572
3	0x3eca0cce	0.39462894
4	0x3e8229c4	0.2542249
5	0x3eb36f50	0.35045862
6	0x3e4a08fd	0.19729991
7	0x3eabf41b	0.33584675
8	0x3ed64f99	0.41857603
9	0x3e6cd2bc	0.23127264
10	0x3e7ef9e2	0.2490001
11	0x3eb087e2	0.3447867
12	0x3e4d5d91	0.20055224
13	0x3ea0f0a1	0.31433585
14	0x3e46e38a	0.19422737
15	0x3ea1484a	0.31500465

res_net.4.bn1.bias f4 [16]
0	0xbde0f613	-0.10984435
1	0xbe33b686	-0.17550096
2	0xbd570fee	-0.052505426
3	0xbe0ee55f	-0.13954686
4	0xbe5869bc	-0.21134084
5	0xbdf50bad	-0.119651176
6	0xbe069f96	-0.13146815
7	0xbe6f01e9	-0.23340572
8	0xbe1cd6f9	-0.1531638
9	0xbe11d3de	-0.14240977
10	0xbe6a7155	-0.22894795
11	0xbe024292	-0.12720707
12	0xbe1aa6bb	-0.15102665
13	0xbde79a19	-0.11308689
14	0xbe9209b0	-0.28523016
15	0xbdcf78ce	-0.101304635

res_net.4.bn1.running_mean f4 [16]
0	0xbcddd9a5	-0.02708132
1	0xbff32f7a	-1.8998864
2	0xbfa85b23	-1.3152813
3	0x3f1c7d4b	0.6112868
4	0x3f056b70	0.5211706
5	0xbf4d4b76	-0.8019327
6	0xc03a495c	-2.9107275
7	0xc024190f	-2.5640295
8	0xbf9fbce5	-1.2479521
9	0xc05292fd	-3.2902215
10	0x3fcbef6c	1.5932441
11	0x3ff0297a	1.8762658
12	0xbfc03001	-1.501465
13	0xbef09af7	-0.4699323
14	0xbfab2911	-1.3371907
15	0x3fbe52d6	1.486903

res_net.4.bn1.running_var f4 [16]
0	0x41953dc5	18.65516
1	0x3fa35b8c	1.2762313
2	0x4197289c	18.894829
3	0x411bb40a	9.731455
4	0x4063859a	3.5550294
5	0x4163c755	14.236165
6	0x40326ffa	2.7880845
7	0x40c5e68c	6.184393
8	0x4148af26	12.542761
9	0x406f087c	3.7348928
10	0x402838ce	2.628467
11	0x416921f8	14.570793
12	0x40d057f3	6.510736
13	0x414f1c5b	12.944423
14	0x401f857f	2.492523
15	0x41856e0e	16.678738

res_net.4.bn2.weight f4 [16]
0	0x3ee60e55	0.4493281
1	0x3ed43431	0.4144607
2	0x3e08f04f	0.1337292
3	0x3eb91844	0.36151326
4	0x3d5ccc23	0.053905617
5	0x3e88d506	0.26725024
6	0x3e3eecb4	0.18644983
7	0x3d6478fa	0.055779435
8	0x3ec8b24d	0.39198533
9	0x3d536d74	0.051618055
10	0x3eacf24c	0.33778608
11	0x3d65cbeb	0.056102674
12	0x3f0ec819	0.55774075
13	0x3eb4a4df	0.35282037
14	0x3f057b77	0.5214152
15	0x3ea84691	0.32866338

res_net.4.bn2.bias f4 [16]
0	0xbe0be11a	-0.13660088
1	0x3d921e04	0.07134631
2	0xbd342dcb	-0.043988984
3	0x3c31e484	0.010857705
4	0xbc5b96d0	-0.013402656
5	0xbd29b003	-0.041427623
6	0x3de86b30	0.113485694
7	0xbc23dbbc	-0.010001119
8	0xbbd5d767	-0.006525922
9	0xbc923378	-0.017846808
10	0xbdf84168	-0.1212185
11	0xbb9494aa	-0.0045343237
12	0xbeb09078	-0.3448522
13	0xbe58ed20	-0.21184206
14	0xbd8a48e1	-0.06752182
15	0x3aede065	0.001814854

res_net.4.bn2.running_mean f4 [16]
0	0x3d09a5b3	0.03360529
1	0xbf52aebe	-0.82297885
2	0x3c45599d	0.012045291
3	0x3f31882b	0.693484
4	0xbd11e4c9	-0.035618577
5	0xbf333758	-0.7000632
6	0xbc3d1e38	-0.011542849
7	0xbe54c284	-0.20777327
8	0xbf39ad68	-0.7253022
9	0xbe531d1c	-0.20616573
10	0x3dc1e3de	0.0946729
11	0xbe5b6bbc	-0.21427816
12	0xbe93bb01	-0.2885361
13	0xbe231c35	-0.15928729
14	0xbea1d1c0	-0.3160534
15	0xbf03f61e	-0.5154742

res_net.4.bn2.running_var f4 [16]
0	0x3e226cca	0.15861812
1	0x3ed3073c	0.41216457
2	0x3d98b2ef	0.07456004
3	0x3ec7eb94	0.3904692
4	0x3d9cfc57	0.076653175
5	0x3e8c171a	0.27361375
6	0x3deb50b4	0.11490002
7	0x3db0d8a2	0.086350694
8	0x3e50a6b2	0.20376089
9	0x3d7cfdf6	0.061765634
10	0x3e581fd1	0.21105887
11	0x3dbd866e	0.09254156
12	0x3e612d87	0.21990024
13	0x3e9dd729	0.30828217
14	0x3e6ccc11	0.2312472
15	0x3e85a602	0.26103216

res_net.5.bn1.weight f4 [16]
0	0x3e873fc8	0.2641585
1	0x3e59a863	0.2125564
2	0x3e437835	0.19088824
3	0x3e8fc408	0.28079247
4	0x3e3badb9	0.18327989
5	0x3e382b50	0.17985272
6	0x3e9b0921	0.30280402
7	0x3e8b5273	0.2721134
8	0x3e853b94	0.26022017
9	0x3e964365	0.29348293
10	0x3e262184	0.16223723
11	0x3e607bc4	0.21922213
12	0x3e9004c3	0.28128633
13	0x3e9aae12	0.3021093
14	0x3e668526	0.2251173
15	0x3e9860f2	0.29761463

res_net.5.bn1.bias f4 [16]
0	0xbe082008	-0.13293469
1	0xbe02b018	-0.12762487
2	0xbdb85ab6	-0.09001677
3	0xbe7e66a6	-0.24843845
4	0xbdf87142	-0.12130977
5	0xbe463f4e	-0.19360086
6	0xbee837a3	-0.45354947
7	0xbe924e9a	-0.28575593
8	0xbe7af3e0	-0.24507093
9	0xbe832b92	-0.2561918
10	0x3b71bb60	0.0036885366
11	0xbdc6d503	-0.097085975
12	0xbec79e1f	-0.38987824
13	0xbe392766	-0.18081436
14	0xbdfabbe6	-0.1224287
15	0xbe348693	-0.17629461

res_net.5.bn1.running_mean f4 [16]
0	0x3ef4a960	0.47785473
1	0xbe63f6de	-0.22262141
2	0x3fe2ef96	1.7729366
3	0x4017910f	2.3682287
4	0x3cb40a3f	0.021977542
5	0xbe1be837	-0.15225302
6	0xbe962784	-0.29327023
7	0xbe21af1d	-0.15789457
8	0xbdc415fb	-0.09574505
9	0x3e28dd59	0.16490687
10	0xbfcc3cd1	-1.595606
11	0xbf322dbf	-0.69601053
12	0xbe17e602	-0.14833835
13	0xbf063636	-0.5242647
14	0xbf35c6cb	-0.7100646
15	0xbef7413c	-0.48291957
