StrongLotteryTycketHypothesis/HyperNetworks/hypernetworks_cifar_paper.pth (torch, 540177 bytes, 402 tensors)

conv1.weight f4 [16, 3, 3, 3]
000000 ab ec f1 3c a7 30 c0 3c 6d 62 09 bb fe 6c b5 3c
       0.029531797 0.0234607 -0.0020963207 0.022146698
000010 72 a6 40 3d 00 00 38 3d 45 39 24 3c 26 be 4b 3d
       0.047033735 0.044921875 0.01002342 0.049741887
000020 26 7f b5 3d d1 a7 b1 3c 63 0b 30 3b 38 f0 8b bc
       0.08862142 0.021686466 0.0026862256 -0.017082319
000030 4f 30 3b 3c fe 69 c1 3c b1 61 9b 3c 19 69 0b 3c
       0.011425092 0.023610111 0.018967481 0.008508944
000040 2f 84 08 3d 9b 0f 92 3d 60 e6 4c bb 60 fa 80 bb
       0.033329185 0.07131883 -0.0031265244 -0.003936097
000050 ca 3e 00 3d 7b 00 c0 3a b4 f2 e3 3c 65 8c 82 3d
       0.03130988 0.0014648581 0.02782569 0.063744344
000060 2a 88 e8 3c de 86 21 3d 36 0d b0 3d 03 89 d4 bd
       0.02838524 0.03943526 0.0859627 -0.103776954
000070 39 26 3e bd 97 e9 99 bd 21 db 11 be 86 75 36 be
       -0.04642317 -0.07515257 -0.14243747 -0.17818269
000080 b0 6a c0 bd 83 6d 48 bd a7 35 26 be 76 d3 d9 bd
       -0.09395349 -0.048932564 -0.16231404 -0.10636036
000090 08 ea 2a bd 3e 89 72 3c e5 4c 04 3c fa ba 99 bc
       -0.041727096 0.014803229 0.008074974 -0.018765915
0000a0 c7 2d 3c bc 83 db 7b 3d 38 00 27 bc 7b 47 3c bd
       -0.011485524 0.06148864 -0.010192923 -0.045966607
0000b0 26 6c 37 3d 8e c0 8e bc 49 41 c7 3d 02 11 d6 3d
       0.044780873 -0.017425802 0.09729249 0.10452463
0000c0 99 9c 6a 3d 33 e8 1d 3e ee 74 3f 3e a1 ed 92 bc
       0.05727825 0.15420608 0.18696949 -0.017935576
0000d0 b0 a6 19 3d fb 92 b4 3d be 2a e9 3d 3b a4 c7 bc
       0.03751248 0.08817097 0.113851056 -0.024370303
0000e0 4a c2 f8 bd e2 f0 8a bd 84 b7 e6 3e 2c 61 9f be
       -0.12146433 -0.06784226 0.45061886 -0.31128824
0000f0 cc 7f e3 3d 2b e2 8c ba f5 da d4 3c 30 fb 73 bd
       0.1110836 -0.0010748556 0.025983313 -0.059565723
000100 6d 27 01 3d bf 07 15 bd 51 d0 72 be ba 45 ae 3e
       0.03153174 -0.03638434 -0.23712279 0.34037572
000110 4c cb f4 bd 98 47 f1 3c 2e 44 36 be e5 3c 76 3d
       -0.11952838 0.029453084 -0.17799446 0.060116667
000120 8a 91 a9 bb 69 f8 83 3d af 2b 85 3b 94 47 da bd
       -0.0051748203 0.06443865 0.0040640454 -0.10658184
000130 66 49 c6 3e 0e fe 2d 3d a0 34 92 bd bd 38 90 bd
       0.38727874 0.042478614 -0.07138944 -0.07042072
000140 50 b0 67 bc ae ae b6 bd 97 67 b2 bd c0 45 c3 3c
       -0.014141157 -0.08920036 -0.087111644 0.02383697
000150 41 5f 8e bd e4 90 58 bd 89 6e 9d 3d 54 9c 91 3d
       -0.06951762 -0.052872553 0.076870985 0.07109895
000160 77 14 26 3e 19 54 89 3e 6d 34 be bc de 63 a0 bd
       0.16218744 0.26821974 -0.023218358 -0.07831548
000170 de d5 79 bd 35 67 b9 3c e5 b3 03 3d ab 22 67 3d
       -0.060994975 0.02263222 0.032153983 0.056429546
000180 51 b0 69 3d de d9 e7 3d 91 a7 0b 3e b2 5a 22 3d
       0.057052914 0.11320852 0.1363814 0.039637275
000190 75 53 b6 3c 17 da 22 bc f1 4f 73 3d 32 e4 76 3d
       0.022256592 -0.009939692 0.05940241 0.060276218
0001a0 4b ee 8c 3c b8 ce 55 bc d6 a1 58 bd de 2e e8 bd
       0.01720347 -0.013049774 -0.052888714 -0.11337064
0001b0 1a be c8 bd e7 3e 82 be d8 b8 0e 3d 16 29 ff bd
       -0.09801884 -0.25438616 0.03484425 -0.124590084
0001c0 f1 94 30 be 45 3a 1c 3d e2 b0 1b 3e a6 ab 86 3e
       -0.17244317 0.038141508 0.15204194 0.26302832
0001d0 1c 19 ed 3c 14 01 c2 bd de 74 8e be f2 eb a2 bd
       0.028942637 -0.09472862 -0.27823538 -0.07955159
0001e0 30 cb c9 bd 36 2b e3 bd 54 8c ce 3c f6 72 5b 3e
       -0.09853208 -0.11092226 0.025213398 0.21430573
0001f0 65 06 bb 3e 3d c0 c6 3d a6 36 2a 3b 33 b3 17 be
       0.36528316 0.09704635 0.0025972514 -0.14814453
000200 5d 3c 62 bd ec 9f 9e bd 65 19 39 bd 4a e2 03 3d
       -0.05523335 -0.077453464 -0.045190234 0.032198228
000210 b1 6f 40 3d 0a a5 5d 3e ae e0 bd 3d 26 7d 87 bd
       0.046981517 0.21644989 0.0927137 -0.06615667
000220 02 0a 23 be 25 91 11 be 53 7e fb bd 9e db 5b be
       -0.15921786 -0.14215524 -0.12279954 -0.21470496
000230 e4 fb cc bd 6f 8d 40 3c 2b 26 29 bd d5 15 db 3d
       -0.10008982 0.01175247 -0.041296165 0.106975235
000240 37 56 52 bd b0 f1 4b 3d 4b 3e 33 bd 42 60 77 bd
       -0.051351752 0.049791038 -0.04376058 -0.060394533
000250 6c f9 97 3c a8 cd 62 bd 50 c6 42 bd 35 80 be bc
       0.01855155 -0.05537191 -0.047552407 -0.023254493
000260 ef 70 2d bd de e9 c9 3c 61 8d b4 3e 3c df b8 3c
       -0.04234403 0.02464765 0.35264114 0.022567384
000270 e8 0f 16 3e 0f ef ce 3e a4 6d a2 3d 06 28 6c 3d
       0.14654505 0.40416762 0.079310685 0.057655357
000280 42 02 05 3e 94 5e 1e be 42 e4 d2 bc 54 72 66 be
       0.12989143 -0.15465766 -0.025743607 -0.2250455
000290 78 94 95 3e c6 6d fc be 56 b8 7f 3e 4f 0e 82 3e
       0.29214835 -0.493025 0.24972662 0.25401542
0002a0 97 5c 23 be 2b 19 52 be 2a 24 8d 3e 42 06 94 3d
       -0.15953289 -0.20517413 0.27566653 0.07227756
0002b0 9c 16 69 bd aa 23 13 be b2 fb 38 3e d6 ac 13 3f
       -0.056906328 -0.14369074 0.18064764 0.576856
0002c0 0d 0f ac be 24 cb 03 3e 11 04 59 be c5 fe 36 be
       -0.33605233 0.12870461 -0.21192957 -0.17870624
0002d0 b4 c8 94 3d 00 d5 26 be 0c a5 5a bd 6f 8a be 3d
       0.072648436 -0.1629219 -0.053380057 0.09303748
0002e0 f4 1e db 3d f6 31 e3 bd cf 0c 5e 3d 0f 2a a5 3d
       0.10699263 -0.11093514 0.054211434 0.08064663
0002f0 48 51 07 bc a6 28 84 3e ef 1c 7b 3e 7c 86 41 bd
       -0.008259125 0.25812262 0.24522756 -0.047247395
000300 37 1f 86 3e de c0 5d 3e 53 c6 de bd 98 43 9b bd
       0.2619569 0.21655604 -0.10877671 -0.07581252
000310 00 28 78 be fb bd a6 be 26 f3 6a bd 26 41 23 be
       -0.24234009 -0.3256682 -0.05736079 -0.15942821
000320 b7 b2 72 bd c9 9d a0 3a 33 e0 b1 bd 7c f2 c5 bd
       -0.059252467 0.0012254055 -0.08685341 -0.09665391
000330 f7 2d 10 3e a5 3e cc 3c f2 ba 8c 3d ba 8b 67 be
       0.14080034 0.024932215 0.068715945 -0.22611895
000340 f4 5f 19 be 76 f0 0e 3e 5a 5f 87 be 97 3b c7 bd
       -0.1497801 0.13958916 -0.26439935 -0.09728163
000350 c8 5b fa 3d 57 94 99 3d 4b 12 07 3e 64 a4 9a 3e
       0.12224537 0.07498997 0.13190572 0.30203545
000360 f6 86 5c be 1b bc 51 be 98 4c 04 be 3a 7e d9 3c
       -0.21535859 -0.20481913 -0.12919843 0.026549447
000370 7a 89 9a 3a 9d dd 1e be 10 0f cc 3d f4 1b d6 3d
       0.0011790239 -0.15514226 0.099638104 0.104545504
000380 73 d1 4b 3c 5a 66 9c 3d db 7d d4 3e 5f a4 86 3d
       0.012440073 0.076367095 0.4150227 0.0657432
000390 11 d8 58 3e 0b 0f 27 3f e6 68 14 3e c8 6c 2f be
       0.21176173 0.6525733 0.1449314 -0.1713134
0003a0 42 b1 6c 3d 4e e6 fb bd f4 49 f4 3d 38 b3 39 be
       0.057786234 -0.122997865 0.11928168 -0.18134773
0003b0 0b 9f b1 3d b1 e2 8c be b4 1a 26 bf 24 9e 67 3c
       0.08672913 -0.27516702 -0.64884496 0.014136825
0003c0 dd 46 c2 3d fc e4 2f be b8 1e c3 3d b1 ee 68 3d
       0.09486172 -0.17177194 0.095273435 0.05686826
0003d0 73 7f 0b be 5e 59 ee 3d bd 91 ce bd 03 4a cd be
       -0.13622837 0.11638139 -0.10086391 -0.4009553
0003e0 c5 6d cc bc 4f c0 ad 3d 7c e5 bf 3b 07 a1 63 bc
       -0.024954686 0.084839456 0.005856214 -0.013893372
0003f0 4b 1a b7 3d a2 0f 3c be 89 66 85 3d 3d e3 3f bd
       0.08940562 -0.18365338 0.06513698 -0.04684757

conv1.bias f4 [16]
000000 30 9e af 36 1d f0 b2 b6 20 de d0 38 0d de 99 35
       5.233822e-06 -5.3327662e-06 9.959587e-05 1.1464014e-06
000010 99 f5 b9 37 27 f0 14 b7 e5 03 1c b9 81 c1 a7 b7
       2.2168084e-05 -8.877402e-06 -0.0001487877 -1.9998059e-05
000020 61 c9 41 38 58 77 17 b7 11 ce 40 35 cb 5b b0 b7
       4.6202334e-05 -9.028088e-06 7.182544e-07 -2.102358e-05
000030 bb 37 00 80 1a 73 6d 37 4d f5 bb b7 77 82 e0 b7
       -1.9992e-41 1.41531e-05 -2.2406364e-05 -2.6763633e-05

bn1.weight f4 [16]
000000 59 8a 94 3d 7d 68 cb 3d bc 61 b0 3e 21 bf 97 3e
       0.0725295 0.09932039 0.34449565 0.29638007
000010 ac 30 75 3e 3f 78 93 3e ba b5 84 3e 1c ff 54 3e
       0.23944348 0.28802678 0.25919896 0.20800442
000020 55 db a6 3e 54 19 31 3f 9c d5 9e 3e 5a ab 75 3e
       0.32589212 0.6917927 0.31022346 0.23991147
000030 32 92 00 80 ed ef 5f 3e 10 29 a2 3e d9 7e d1 3e
       -5.2445e-41 0.21868868 0.31671953 0.4091709

bn1.bias f4 [16]
000000 ae 13 06 3e 5f e8 29 3e fc 84 b5 3e 72 ea 05 be
       0.13093445 0.16592549 0.35453022 -0.13077715
000010 80 97 8c 3e 99 d2 f5 3d 6d 85 0c 3f 60 5a 48 3e
       0.27459335 0.12003059 0.5489109 0.19565725
000020 4d 55 4b 3e fe ee b9 be d4 94 a9 3e 6f 9e ec 3e
       0.19856758 -0.3631515 0.3312136 0.46214625
000030 8b 45 9a ba 7c b7 09 3d ea cf 45 3e cd c2 22 be
       -0.0011769993 0.03362225 0.19317594 -0.15894623

bn1.running_mean f4 [16]
000000 ab 2a 61 3a cd e7 c2 3c 80 8d cd 3b d0 c1 2d bb
       0.0008589427 0.023792172 0.0062729716 -0.0026513226
000010 3b a3 01 bc e3 e8 f7 3c fb 20 88 3b 80 ea 08 bc
       -0.007912452 0.030262416 0.004154322 -0.00835669
000020 51 36 e8 bb bf c0 76 ba 8a 18 06 3a ef 7e d9 3a
       -0.007086553 -0.00094128767 0.0005115351 0.0016593615
000030 09 3f 00 80 87 aa d7 bb 35 26 ed 3a 6c 64 a9 bc
       -2.2613e-41 -0.0065816077 0.0018093052 -0.020677768

bn1.running_var f4 [16]
000000 fd be 2e 3f 08 30 f8 3e fb 3a 73 3e 24 3f 00 3f
       0.68260175 0.48474145 0.23752968 0.50096345
000010 66 ce 6b 3f 68 46 15 3f 7b 0b d3 3d 85 0f b1 3d
       0.92111814 0.58310556 0.10304924 0.08645538
000020 b4 c5 74 3e ef b8 5f 3f de 77 02 3e f1 f8 91 3e
       0.23903543 0.8739156 0.12741038 0.2851024
000030 04 00 00 00 02 1a bd 3e 0d c9 5b 3f 8d 9c 5b 3f
       6e-45 0.36933905 0.85853654 0.8578575

hope.w1 f4 [64, 1024]
000000 2d 8e af 3d 28 a8 08 bd 7d 04 30 3c ff f7 db bc
       0.0857204 -0.03336349 0.010743258 -0.026851652
000010 ac 64 92 3b 21 db ce 3b 25 df 4f bb 16 2d cb 3c
       0.0044675674 0.0063127433 -0.0031718698 0.024801772
000020 31 99 4b 3a 95 f3 19 bb 82 13 28 bc 7e 6e 78 3a
       0.0007766663 -0.0023491133 -0.010258557 0.0009476914
000030 72 4e a0 3d b9 26 84 bd 71 1b ab 3d 52 07 3e bc
       0.07827462 -0.06452698 0.083548434 -0.011598425
000040 cf 4b 1a 3d 30 36 66 3c b3 23 db 3d 5f ed 37 bc
       0.037669953 0.014051005 0.107001685 -0.011226027
000050 1d 0c 0d 3e ed c3 17 3c 83 07 a5 38 e6 11 83 3d
       0.13774152 0.009263021 7.869212e-05 0.06399898
000060 8a 28 a8 bd af bb aa 3c 97 3a a5 3d 43 9c ed 3b
       -0.08210857 0.020841448 0.08067816 0.007251294
000070 4a 32 34 bd 1c b2 80 be d4 c4 82 bc c7 05 be 3c
       -0.043993272 -0.25135887 -0.015962996 0.023196114
000080 cf 6e 39 3d 31 96 12 3e 0a 0b c8 3c 57 fc fc 3d
       0.04527169 0.14315106 0.024419326 0.123528175
000090 f7 e5 d7 bc fe c9 53 3b 03 57 56 bd 33 6e 8c bc
       -0.026354773 0.0032316442 -0.052329075 -0.01714239
0000a0 35 c4 af bb 72 f4 37 bd 7b 3b 25 3d 1a 5d 3d bc
       -0.005363966 -0.044910856 0.040339928 -0.011557842
0000b0 68 01 20 bc f2 9b 97 bc 2b 9b 21 3c 18 12 47 bb
       -0.00976596 -0.018506978 0.009863655 -0.0030375775
0000c0 f6 57 32 3d d0 a0 59 bd 09 79 26 be 5f b9 58 3d
       0.043540917 -0.05313188 -0.16257109 0.05291116
0000d0 98 39 b4 3c 6f 4b 7d bd 54 09 45 3c c1 ed 00 3c
       0.02200012 -0.061839517 0.01202615 0.007869185
0000e0 4d 16 28 bd c0 49 a1 bd 7c ba 07 3b 24 a9 94 bc
       -0.041036893 -0.07875395 0.0020710519 -0.018147059
0000f0 83 ca 8d bd e8 37 47 bb 58 33 67 bd d8 d7 be 3a
       -0.06923392 -0.0030398313 -0.05644545 0.0014560176
000100 4c 05 e0 3d 9e b6 e7 3b 20 82 3b 3b b8 52 c5 bc
       0.1093851 0.00707133 0.0028611496 -0.024087295
000110 38 3b f8 3a 07 22 37 bb be 73 a7 3c 95 44 25 3e
       0.0018938547 -0.0027943866 0.020440932 0.16139443
000120 c0 9f 49 3c 35 b1 f6 37 37 77 97 3c 0a 7f 27 3b
       0.012306154 2.9408004e-05 0.018489463 0.00255579
000130 0e c9 7d 3d 2f 4c c4 bc cf be 35 3d a5 bf 97 3b
       0.06195932 -0.023962108 0.044371422 0.004631
000140 25 5f 1c 3d e9 4f a8 3b 2e 57 ca bd 9c b1 80 3b
       0.038176674 0.005136479 -0.098799095 0.0039274227
000150 85 f1 35 3c e6 c8 4d bb b3 1f 4a 3c 78 38 fb bc
       0.011104946 -0.0031400262 0.012336659 -0.030666575
000160 d2 ab bb bd ce 76 42 3c 65 d7 b0 3d 6b 73 b9 bb
       -0.091636315 0.011869146 0.08634833 -0.005659511
000170 ff 07 aa bc df 61 8d 3d ae ac 51 bd c8 3e be 3d
       -0.020755766 0.06903433 -0.05119007 0.09289318
000180 33 a1 80 3c a8 ba 14 3c f4 7e a9 bc f0 b0 aa 3c
       0.015701866 0.009077705 -0.020690419 0.020836323
000190 73 70 e7 3b 43 2f 89 3b f0 4e 42 be c6 0f 08 bc
       0.0070629655 0.0041865422 -0.18975425 -0.008304542
0001a0 1c cc f5 bb ed 0a c4 bc 37 af 3b 3d 35 35 e5 bb
       -0.0075011384 -0.023930991 0.045821395 -0.006994868
0001b0 73 db 75 bb 5c 21 1e 3c 29 3f 31 ba a9 d4 64 bc
       -0.0037514835 0.009651508 -0.0006761426 -0.013966718
0001c0 cb 94 2d bd 02 d4 a4 bd bd 22 40 3c a3 4c ad bd
       -0.04237823 -0.0804825 0.011727032 -0.08461883
0001d0 09 63 de bd 43 fd f8 bd 4f a9 21 bd 2c a3 e1 3b
       -0.10858733 -0.12157681 -0.039468106 0.0068859067
0001e0 58 51 9e 3c 28 c8 73 bd a4 bd 05 bc d6 23 bc bd
       0.019325897 -0.059517056 -0.00816289 -0.09186523
0001f0 b3 1a 43 bd 3a d3 b5 3d 02 bb dd 3d cf c4 1b bd
       -0.047632884 0.08878179 0.108266845 -0.03802949
000200 fe a5 64 bd db 57 0c be b3 48 ad bb c0 52 88 bd
       -0.055822365 -0.13705389 -0.0052882074 -0.06656408
000210 7c 9b c4 bb 07 79 4c b9 ae aa 36 3d a0 bc 0b be
       -0.0059999805 -0.00019500042 0.044596367 -0.13646173
000220 87 aa 6a bb bc b2 f2 b9 60 74 99 bb 53 c7 a4 b8
       -0.0035807209 -0.00046291004 -0.0046830624 -7.8572564e-05
000230 18 30 41 3c 54 88 37 3e b0 b3 09 3d 5a f9 96 b9
       0.011791252 0.17923099 0.03361863 -0.0002879601
000240 b7 9e 04 be d5 60 f9 bc a9 58 68 3c 86 26 89 bc
       -0.1295117 -0.03044168 0.0141812945 -0.016742002
000250 dd 69 f8 bc f6 3f 87 bc ef 43 02 ba f8 1c 82 bc
       -0.030323917 -0.016509991 -0.00049692293 -0.015882954
000260 a4 ab 4a bd 69 1d 86 bc 5a 29 ce bb 92 7e be 3c
       -0.049480096 -0.016371446 -0.0062915506 0.023253713
000270 0d 75 93 3d 30 89 e5 bd c3 c9 22 bc ba 5b 5a 3d
       0.0720006 -0.11207807 -0.009935799 0.053310134
000280 63 3f 16 bd 24 b2 f1 bd ff e7 00 bd 91 03 b8 3d
       -0.036681544 -0.11801556 -0.03147125 0.08985055
000290 82 a2 c3 bd 02 43 84 bb f8 e0 d5 bc 96 ef 20 bd
       -0.0955248 -0.0040363083 -0.02610825 -0.039290987
0002a0 a4 6d b9 b8 85 f2 b7 3d f7 cb ae bd 51 c7 74 3c
       -8.8419096e-05 0.08981804 -0.08534997 0.014940099
0002b0 28 bb 4b 3b 35 22 9f 3d f2 38 5b bb aa bc 27 3b
       0.0031086896 0.07770196 -0.003345069 0.002559463
0002c0 44 cd d4 bd 1d 92 1f be 0a 8b a0 3c bb 9f 04 3d
       -0.10390714 -0.15583082 0.019597549 0.032378893
0002d0 6c dc 3d 3c 79 b4 08 be 98 f9 ea 3d b5 95 53 3a
       0.011588197 -0.13350095 0.114733875 0.00080713193
0002e0 41 5b 9d bd 02 9a ec 3d 61 fe 2c 3c 4f 1c b9 bd
       -0.07683421 0.11552812 0.0105586955 -0.090386026
0002f0 c9 e4 0d 3e 4e 69 9c bd 62 4c 83 bc 84 9f 32 3c
       0.13856806 -0.07637273 -0.016027633 0.010902289
000300 84 d9 d9 3d 98 72 c5 3b 5f 2e b9 3b 33 34 a1 bc
       0.10637191 0.0060256235 0.00565128 -0.01967821
000310 9f fd d3 bb fb 80 be bb 90 95 dd bc d7 98 87 bd
       -0.006469443 -0.0058137155 -0.027048856 -0.06620949
000320 18 d6 6c 3c c0 20 be bb 83 e0 00 bc 56 56 0b bc
       0.014455341 -0.005802244 -0.007866028 -0.008504471
000330 60 9f 0b 3e 83 db 9e bd e7 68 fd 3d 6e bc bd bb
       0.13635015 -0.07756712 0.12373524 -0.005790285
000340 cf 3e 6a bd 74 8e b2 bb 00 c1 d0 bc 65 36 90 bb
       -0.057188805 -0.0054491106 -0.025482655 -0.0044010156
000350 47 32 4c bb c4 30 1f bc df 73 78 bb 90 a0 76 3d
       -0.0031157897 -0.0097162165 -0.0037910861 0.060211718
000360 5e 38 24 bd 06 15 69 bc ca 10 ce 3d fc 90 10 be
       -0.04009282 -0.014226204 0.10061796 -0.14117807
000370 39 cf 66 3d 85 6e 1f bd a5 f9 34 3d 68 8f 07 3c
       0.056349967 -0.03892376 0.044183392 0.008273937
000380 43 47 1a 3b b7 83 fc bb 42 2c 09 bd 18 93 b4 bc
       0.002354101 -0.0077061313 -0.033489473 -0.022042796
000390 0f e0 99 bb 46 3e 3e bc 33 06 e2 3d ec 90 6a 3d
       -0.0046958993 -0.011611527 0.11036339 0.057267115
0003a0 f2 8b 42 3c eb d4 17 bd c7 c6 8d 3d fd 6b 99 ba
       0.011874186 -0.03706829 0.069226794 -0.0011705157
0003b0 b2 0f 0b 3c ab 51 f3 3d cb 32 1e bb 7d 28 1a 3c
       0.008487629 0.11880811 -0.0024139162 0.009409067
0003c0 5f a7 b0 3d 2c d1 b6 bd 06 e0 c1 3d 85 26 fc 3d
       0.086256735 -0.08926615 0.09466557 0.123120345
0003d0 de 7d bd bd 86 b7 fe 3c 09 f3 e0 bd 9e 90 b6 bb
       -0.09252523 0.03109337 -0.10983855 -0.005571439
0003e0 80 14 e0 3d 91 b8 87 bd f9 d1 6e 3b c8 40 35 3d
       0.1094141 -0.06627 0.0036441071 0.044251233
0003f0 ef 04 30 be 2b 75 49 3d 94 82 ed bd 94 9c 83 bc
       -0.17189382 0.049184006 -0.115971714 -0.016065873

hope.b1 f4 [1024]
000000 2e c6 56 ba 54 7c 9c 3c e4 9e d9 3b 3c cc da 3c
       -0.0008192983 0.019102253 0.0066412557 0.026708715
000010 c9 5d 57 bb de e8 c6 b9 05 27 54 bc 4d c8 92 3b
       -0.0032862297 -0.00037939003 -0.012948756 0.004479444
000020 de e1 29 bb 46 cd b6 3b 14 d3 b1 3b 55 5d 78 bb
       -0.002592198 0.0055786697 0.005426774 -0.0037897427
000030 8a 76 f0 3c 99 b5 07 3c 9c d9 74 bc 64 91 54 bb
       0.029353399 0.008283042 -0.01494446 -0.0032435292
000040 37 8e 39 bc e2 cf 91 bb 26 1a 82 bc a0 16 b3 bb
       -0.011325411 -0.0044498304 -0.01588161 -0.0054653436
000050 4e 0f ed bb 65 26 86 bb 21 f1 d4 ba 32 80 8a bc
       -0.0072344905 -0.0040939325 -0.0016246178 -0.016906831
000060 56 94 d2 3c 7d 47 0f bc 41 68 09 3c 07 73 d1 ba
       0.025705498 -0.0087450715 0.0083866725 -0.0015979715
000070 bf bd ce 3b 87 ed c3 3c 4c 66 5c 3c c2 4f fc ba
       0.0063092406 0.023916973 0.013452124 -0.0019249844
000080 42 94 42 bb 9c 96 12 bc cc dd d9 3b 37 bb a3 3c
       -0.002969042 -0.008947041 0.0066487547 0.019986732
000090 7a 64 44 bc 03 c8 0c 3b 21 ee 0f bd 9d 3b 95 bc
       -0.011986846 0.002148152 -0.035139207 -0.018216902
0000a0 5d 19 fd ba 79 97 b6 3b dc ff 00 bd 36 7a 42 bb
       -0.0019309927 0.005572256 -0.031494007 -0.0029674894
0000b0 5d 5b e5 bb 7b 14 74 ba 6b 7b b4 3a 46 30 d2 ba
       -0.0069994167 -0.0009310913 0.0013769692 -0.0016036115
0000c0 59 02 88 3c 58 b4 b0 3a 3a ec 39 bb 78 7d 5a 3d
       0.016602682 0.0013481481 -0.0028369562 0.053342313
0000d0 1d 33 80 bc 18 18 ff 3c 87 bf e4 bb 05 f5 ef b9
       -0.015649373 0.031139418 -0.0069808397 -0.00045768186
0000e0 07 05 1a bc dc de 62 3b dc 3f 1d 3b 65 49 c7 3c
       -0.009400613 0.0034617698 0.0023994362 0.02432699
0000f0 ab 61 2e bd 36 3c 30 3c c6 4d 47 bd 9a 5e 3d bc
       -0.042573612 0.010756543 -0.048658155 -0.011558199
000100 b7 90 30 bd bc e8 87 bc 7c a9 98 bb 9d 6b 09 bb
       -0.04310676 -0.016590469 -0.004658876 -0.0020968684
000110 a4 53 39 bb fb ce 46 3b 06 ad 6a 3c 72 cb eb bc
       -0.0028278613 0.0030335772 0.014323479 -0.028783534
000120 76 09 09 3b 5c dd 25 39 d1 b9 37 3b b8 9d e7 3b
       0.002091018 0.00015818089 0.002803434 0.007068362
000130 65 bb 97 bc 3a 73 16 bc 29 70 be bb 2f db b2 3b
       -0.018521974 -0.009182746 -0.0058117104 0.0054582576
000140 83 02 69 bb 28 99 42 39 7b 5d de bc 18 6e 07 3b
       -0.0035554476 0.00018558337 -0.027144184 0.0020664986
000150 13 d4 31 3c c1 e1 9f 3a 09 98 0d 3c a0 12 1a bc
       0.010853785 0.0012198017 0.008642205 -0.009403855
000160 64 2d 0f 3d 93 e9 b2 3b 3f 62 a5 bc 44 f8 34 bc
       0.034955397 0.005459973 -0.020188449 -0.011045519
000170 e6 15 a2 3c c4 8a e0 bb 0a 5a de 3c 6f f6 31 3d
       0.019785833 -0.0068524797 0.027142543 0.043447908
000180 88 44 95 38 a4 3b b1 bc a5 c5 8f bc ac 05 6f 3c
       7.1176386e-05 -0.021634884 -0.017550299 0.014588755
000190 4c c8 70 bc 6b ba 35 ba 4a 8c e0 3c ae 63 b4 bb
       -0.014696192 -0.00069323805 0.027410645 -0.005505047
0001a0 ea 25 9d bb 03 1a d1 3c bc 5c c7 3c d7 f5 e6 3a
       -0.0047957795 0.025525099 0.024336211 0.0017620873
0001b0 81 28 d2 3a cf 0a 01 3c f6 23 36 bb ec 08 0d bc
       0.00160338 0.007876112 -0.002779243 -0.008608084
0001c0 ed 60 3b 3d 41 17 16 bd bf d7 01 3c 02 05 a2 3c
       0.045746733 -0.03664327 0.007924973 0.019777779
0001d0 d3 c2 c4 3c 34 78 83 bc eb 53 7b 3c 2e c4 18 bb
       0.02401868 -0.016048528 0.015339832 -0.0023310292
0001e0 0c a5 4a 3c c5 6b 50 3c d5 dc c7 ba 23 81 85 3c
       0.012368452 0.012721007 -0.0015248308 0.016296929
0001f0 59 a6 9d bc 09 26 87 bb b3 35 4c 3c 54 03 7c 3b
       -0.01924436 -0.004124407 0.012463975 0.0038454132
000200 99 8e a4 3c 54 0b b7 bc 41 7e d1 ba 89 c1 f5 ba
       0.020087527 -0.022344269 -0.0015983061 -0.0018749695
000210 b0 c4 be 3b 2d bf ad bb 4d 1c e1 3c 03 5d 5f 3c
       0.005821787 -0.005302331 0.027479315 0.013633016
000220 79 7c 48 bb 8c 68 dc 3b a9 12 7a 3b 24 06 0f 3b
       -0.003059177 0.00672633 0.0038158095 0.0021823728
000230 f1 4a ed bc 0e b6 0d 3d c7 c3 86 3c 1c 8e 4d 3a
       -0.028966399 0.03459745 0.016450776 0.00078413053
000240 d8 71 c6 bc 55 4b 73 3b 83 83 0c 3a de 46 5d 3b
       -0.024224207 0.0037123759 0.0005360173 0.0033764164
000250 99 d9 82 bd 1b 94 4e 3b 2c fc 9c bb 6f bf 87 bc
       -0.0638916 0.0031521383 -0.0047908034 -0.016570775
000260 7f da fa ba a9 b8 08 bc f7 36 b6 3c cb 12 b5 bb
       -0.0019138603 -0.008344808 0.022243006 -0.005525922
000270 8e 03 50 3c f4 27 ad bc 54 c7 53 bb 44 59 ea 3b
       0.01269616 -0.021137215 -0.0032314854 0.0071517546
000280 02 3e cc 3c 58 ec de 3b ba 30 9d bc 79 c4 f1 3c
       0.024931911 0.0068030767 -0.019188274 0.02951263
000290 7e fb f3 3b 8e 6f f0 3b af 93 a2 bb 9f 0c bc 3c
       0.0074457517 0.007337517 -0.004961453 0.022955237
0002a0 c5 77 82 3b 77 af 51 bc 20 44 a7 bc f8 84 b2 ba
       0.003981563 -0.012798182 -0.020418227 -0.001361995
0002b0 93 47 aa bb 23 db b0 ba bc 6b c1 bb 06 f8 e4 3a
       -0.0051965206 -0.0013493042 -0.0059027355 0.0017468936
0002c0 93 95 1a 3d 04 6d 1d bd b8 94 3e 3c 14 67 b8 bc
       0.0377403 -0.038434044 0.011632137 -0.022510089
0002d0 41 ac c2 3c e5 62 23 bc d7 a9 83 3c c9 24 20 ba
       0.023763778 -0.009972309 0.016072197 -0.0006108997
0002e0 74 38 de bb 54 13 99 bc b7 d8 ff ba b4 d1 19 bc
       -0.006781632 -0.018685974 -0.0019519542 -0.009388376
0002f0 7f b4 1b bc 0e 34 8b 3b c2 19 ef 3b be 2b 19 b9
       -0.009503483 0.0042481488 0.0072967717 -0.00014607512
000300 36 32 9f 3c 5e df 0e bd e0 35 0f 3b 21 fa 3f 3b
       0.019433122 -0.03488099 0.002185218 0.0029293376
000310 a5 3a 36 b9 60 fc db b9 82 d4 04 bc 04 5f 61 bb
       -0.0001737872 -0.0004195897 -0.008107306 -0.003438891
000320 97 50 ff 3a 8c 70 93 bb 01 1c 8b bb 80 01 0a 3c
       0.0019478974 -0.0044995006 -0.0042452817 0.008423209
000330 ba ea 26 3d 62 69 92 bc b5 00 4e 3b 97 e3 75 3b
       0.040751196 -0.017872516 0.0031433527 0.0037519687
000340 dc a3 4a 3d 85 d8 e4 3b 29 55 cd bc b3 c0 03 bb
       0.049472675 0.006983819 -0.025065022 -0.0020103871
000350 4a 7d 41 3b 38 46 77 3b 9b 0d ac 3b 34 0d bd 3b
       0.002952414 0.0037731063 0.0052506453 0.005769396
000360 da 5d 41 3b f3 cb 0c 3c b8 f8 8a 3d 81 b6 b0 3d
       0.0029505403 0.008593547 0.067857206 0.0862856
000370 79 66 06 bd 57 19 bb 3a 3f a5 90 3c 65 5a e4 ba
       -0.03281257 0.001427452 0.01765692 -0.0017421959
000380 5c 9e 81 bb f1 3f 97 bc 33 d1 93 bb a1 32 2a 3d
       -0.0039556455 -0.018463107 -0.0045110225 0.04155219
000390 38 92 74 3c 08 2b 9b 3a 9b c0 69 bc 47 59 20 3c
       0.014927439 0.0011838386 -0.014267112 0.00978691
0003a0 e6 85 86 3b ae ab 8e bd 37 bd 7f 3c 33 15 4b 3b
       0.0041053174 -0.06966339 0.015609077 0.0030987978
0003b0 17 a3 b6 3a dd 77 88 bc 63 b9 a8 3a 23 67 04 bc
       0.0013934103 -0.016658718 0.0012872632 -0.00808123
0003c0 d7 65 8b bd f2 32 81 bc 38 2d 08 bd 3b c8 b3 b9
       -0.06806534 -0.015771363 -0.03324625 -0.00034290724
0003d0 d5 05 4b bc f1 d0 44 3d c4 75 ce 3d 4f e9 f1 3b
       -0.012391527 0.048050825 0.10081056 0.007382549
0003e0 30 ed 8c bc 6c 49 2f bb 52 5e 9f 3a 9c 56 d1 bd
       -0.017202944 -0.0026746644 0.0012158847 -0.102215976
0003f0 a9 51 46 3c 35 62 98 bc c2 81 e9 3c 74 13 16 ba
       0.01210443 -0.018601516 0.028504256 -0.00057249446

hope.w2 f4 [64, 144]
000000 89 16 76 3b cf bc ed bd 4d 5f b4 bd ad ee 7b 3e
       0.0037550053 -0.11608278 -0.0880724 0.24602766
000010 25 66 b8 bc 64 a1 ee bd 57 76 51 3e 26 35 62 3d
       -0.022509644 -0.116518766 0.204553 0.055226468
000020 a3 ab 28 bc 8f ac e4 3d ed 64 44 3e 03 36 c4 3d
       -0.010294828 0.111657254 0.19179125 0.095806144
000030 96 e3 c6 3d 57 b5 c1 3d b1 01 93 bc cf ca a2 bd
       0.09711377 0.09458416 -0.017945142 -0.07948839
000040 41 38 4f be dc 49 84 be 90 13 02 be e9 60 f8 bd
       -0.20236303 -0.258376 -0.12702775 -0.12127859
000050 0f 2c 54 3d db 2f 65 be c2 ee f7 bd 90 21 63 3e
       0.05179983 -0.22381537 -0.12106086 0.22180772
000060 29 2a 28 3a f0 66 bc 3d ed f2 48 3e e8 fe 14 3d
       0.0006414974 0.09199321 0.19623919 0.03637591
000070 8f 1e ab bd 1d 9f 98 bd c8 72 28 bd 66 70 4e 3c
       -0.08355438 -0.074522234 -0.04112509 0.01260004
000080 f0 6b 89 bb 5d b3 07 be 95 85 3b 3c 63 64 30 3c
       -0.0041937754 -0.13252015 0.011445423 0.010766122
000090 90 d8 6c 3d 34 48 5b bd 4d db 79 bd 3e 3f 7c 3d
       0.057823718 -0.053535655 -0.061000157 0.06158375
0000a0 97 6b 54 bc ab 0e 00 be b9 0b 9e bc 5f 1e d4 3c
       -0.012965105 -0.12505595 -0.0192927 0.025893388
0000b0 b7 16 10 be 06 78 99 bb 82 19 f4 bc 10 97 b4 bd
       -0.14071165 -0.0046834974 -0.02979732 -0.088178754
0000c0 87 03 91 3d bc e1 a6 3d ac 05 07 bd b8 9e 83 3c
       0.07080751 0.08148524 -0.032964393 0.016066894
0000d0 3c 31 59 bb 17 b4 0c 3c af a9 b2 bd 81 a2 d8 3d
       -0.0033140918 0.008587859 -0.08723771 0.1057787
0000e0 0b 0f 96 3e 30 07 e3 bd 60 2e fc bd 40 d7 75 3e
       0.29308352 -0.11085355 -0.12313533 0.24007893
0000f0 66 6c 57 3c fb d1 f4 bd b6 9a 08 bd d3 a4 ce 3d
       0.013148403 -0.11954113 -0.03335067 0.100900315
000100 e4 bb ca 3d 3b b0 fc 3d ce 70 5b bc 44 48 8b 3d
       0.098991185 0.12338301 -0.013393594 0.06800893
000110 a3 ae 80 3d 5e ec 2b be cd cb 05 be 2c 8b aa 3d
       0.06283309 -0.16789386 -0.13066025 0.08327326
000120 3d c8 2a be 61 d4 7b be 05 c4 a8 bc 97 5d d2 bd
       -0.16677947 -0.24592735 -0.020601282 -0.10271757
000130 f4 e8 d4 bd 48 a5 e5 3d f6 f1 a1 3c 99 9f c4 3d
       -0.10395995 0.112131655 0.019768696 0.09600753
000140 1b d5 55 3e 3e 44 aa 3d df 0d 34 3e 14 ba 53 bd
       0.20882075 0.083137974 0.17583416 -0.05169113
000150 ce b3 5b 3d 0f 70 3a 3d 7f 18 0a be 5d 76 e0 bb
       0.053638272 0.045517024 -0.13485907 -0.0068500475
000160 37 c1 52 be b9 73 bc bd d9 68 63 3d a8 e9 79 bd
       -0.20581518 -0.0920176 0.055519912 -0.061013848
000170 c5 6f 82 3d f6 31 0d 3e 8f ce a8 3d e7 e0 96 bd
       0.063689746 0.1378859 0.08242523 -0.073671155
000180 1f f5 66 bc cc 77 7d bd ba 3c 09 be 51 b2 c3 3d
       -0.014096527 -0.061881825 -0.13402072 0.095554955
000190 73 c2 22 3e 88 cc ef bb 06 23 8a bb 25 43 12 3d
       0.15894489 -0.007318083 -0.004215601 0.035708565
0001a0 bb 49 10 bd 5b 1d 05 be bd b7 e3 bd 90 2f 61 3d
       -0.035226565 -0.1299948 -0.1111903 0.054977
0001b0 36 14 0b 3d 75 7f b7 3b 4f bb cb bc 8a 95 ba 3d
       0.03395482 0.005599911 -0.02486959 0.091105536
0001c0 f6 23 19 3e 4c 6d 4e be 59 da c8 3d 07 7a ce 3d
       0.14955124 -0.20158881 0.098072715 0.100818686
0001d0 7d 50 33 be 1c 09 21 3d 3a 96 f0 bd 76 5b 5d be
       -0.17511173 0.039315328 -0.117474034 -0.21616921
0001e0 8a 4c 33 3d 62 15 e0 3c 4d 4e 84 3c f4 54 84 3d
       0.043774165 0.027353946 0.016150618 0.06461516
0001f0 62 2f 1b 3e 96 7f ce 3d f8 4f c0 3d d5 0e b6 3a
       0.15154794 0.10082929 0.09390253 0.0013889918
000200 cb ab d7 bd 3d 86 5f 3e e3 5f 65 bd a2 c1 2e be
       -0.10530814 0.21828552 -0.055999648 -0.17066053
000210 5c 39 2a 3e fb 1f 27 3d 8a 50 e9 bd 12 84 fa bb
       0.16623443 0.040801983 -0.11392315 -0.0076451385
000220 d7 2c d6 bc 6e e5 dc bd 8c 1a 20 be bf dd 15 3e
       -0.026144428 -0.10785948 -0.15635127 0.1463537
000230 2b df 4c bc 6b 89 1a be 7b 61 d6 3d a8 c3 8b 3d
       -0.012504379 -0.15091483 0.10467812 0.06824428
000240 ad 23 87 bd bd 54 83 3b 4c b7 f9 3b b3 62 ef bd
       -0.065986015 0.0040079043 0.0076207276 -0.11688747
000250 b3 59 f6 bd 50 5f bd bd d2 6a 64 bd d4 a5 46 be
       -0.120288275 -0.09246695 -0.055765934 -0.19399196
000260 18 7d 78 be 61 04 ec 3d b0 2f 24 3e a0 f1 90 3d
       -0.2426647 0.11524273 0.16033816 0.07077336
000270 67 79 f0 3c 18 6e 25 3e 35 1a 15 3e 71 ca 87 bb
       0.029354764 0.16155279 0.14560778 -0.004144006
000280 dd 0b 21 bc 09 31 2a 3d 84 48 ab bd f7 e5 95 3c
       -0.009829489 0.04155067 -0.08363441 0.018298132
000290 cc ce a6 3d f0 06 49 be 67 e4 27 bd 5d 76 23 3e
       0.08144912 -0.19631553 -0.040989306 0.15963121
0002a0 7b 83 58 bc 49 f1 06 3d 73 87 83 3d a3 e8 2e 3d
       -0.013214941 0.03294495 0.06422319 0.04270233
0002b0 51 68 82 bd bb a7 c4 3c f7 41 7b 3d 2c f3 0e bd
       -0.06367553 0.024005761 0.061342206 -0.034899876
0002c0 2d 2a 63 3d 60 88 17 bb 97 81 2f 3c b5 a1 c0 3d
       0.055460144 -0.0023122057 0.010712049 0.09405843
0002d0 fa 91 12 bd 58 cf c8 3c ca 5e 5a 3d 6a ab 92 3c
       -0.035783745 0.024512932 0.053313054 0.017904002
0002e0 0b 0a 66 3d cf 7f d2 3c 5f 6e 15 3e 0f 0b 8a 3d
       0.05616192 0.02569571 0.14592884 0.067403905
0002f0 05 bc 08 3d 1d 84 2d bd 5d af 39 bd 64 22 38 bd
       0.033382434 -0.04236232 -0.045333255 -0.044954672
000300 5e b7 46 be c1 5e 5f be b6 1c 3b bd 4e 07 73 be
       -0.19405887 -0.2181349 -0.045681678 -0.23733255
000310 65 57 91 be 32 8a 0c be eb 9d 36 3e 0e 8e 10 3d
       -0.2838699 -0.13724592 0.17833678 0.035291724
000320 cd f0 aa bd e4 98 49 3c 48 2d 9e bd 0a 0b b3 bd
       -0.0834671 0.012304518 -0.077234805 -0.0874234
000330 22 13 f6 3d 94 d1 a9 3c b8 44 55 3d 8a 1f 03 bd
       0.12015368 0.020729817 0.05206749 -0.0320125
000340 04 56 bc bd 07 84 fe bc b2 34 a9 bc 61 75 04 be
       -0.09196094 -0.031068815 -0.02065501 -0.12935401
000350 5b 34 77 bd d8 d0 f4 3c 3f ef 27 3d f3 41 7a bb
       -0.060352664 0.02988474 0.040999647 -0.0038186281
000360 0b 03 00 be 20 11 3f be 16 27 4d bd 7f f1 a3 bd
       -0.12501161 -0.18658876 -0.050086103 -0.08005046
000370 6a 8f 2c be f5 7f 25 be e1 c9 47 3d 6e af 56 3c
       -0.16851583 -0.16162093 0.04877651 0.013103349
000380 35 87 2d 3c bf fc 0d 3e 56 95 fb 3b be 60 65 3c
       0.010591318 0.13865946 0.0076777143 0.014000116
000390 1a 0a 62 3e d7 0c b4 3d c4 50 f3 bc fe e0 e5 3b
       0.22074166 0.087915115 -0.029701598 0.0070153465
0003a0 bc 90 89 3d 0f 80 08 3d e9 25 c0 bd 91 e8 a6 bd
       0.06717059 0.03332525 -0.09382231 -0.08149827
0003b0 47 f8 e0 bd 5f 92 29 bd 22 64 54 3d df b0 b1 3c
       -0.10984855 -0.041399356 0.051853307 0.021690784
0003c0 4a 0c b7 3d 4d 27 2f 3e c5 5f 03 3e c0 4b ef bd
       0.08937891 0.17104836 0.12829502 -0.1168437
0003d0 cc ae 13 be e2 15 95 bd 59 90 a8 bc 8a ad 97 bd
       -0.14422148 -0.072795644 -0.020576643 -0.07406147
0003e0 a2 18 ae bd c4 fb 53 bd f3 dc 75 bc b9 14 b0 bd
       -0.08500792 -0.051753774 -0.015006292 -0.085977025
0003f0 62 50 e9 3d 5c f1 25 3e df 5b ae 3d cc 77 4e 3b
       0.11392285 0.16205353 0.08513617 0.003150451

hope.b2 f4 [144]
000000 26 d2 d4 3b a8 a6 39 3c 90 69 16 3c 2e 2a 82 3c
       0.006494778 0.011331238 0.0091804415 0.015889253
000010 27 58 0d 3c 97 5e 85 3a 50 ba 88 ba a0 2d 81 3c
       0.008626974 0.0010175285 -0.0010431502 0.015768826
000020 fe 7e ef 3b 3a 2e 10 bb 86 65 2c 3c 4d 1a 37 3b
       0.00730884 -0.002200021 0.010522252 0.002793926
000030 09 d0 91 3b 8f 93 91 3c 71 06 48 3c 1b 9f c8 ba
       0.0044498486 0.017770557 0.012208567 -0.0015306206
000040 32 3e 4d 3c c3 3b b4 3b 12 a6 3d bc ae 91 56 bb
       0.012527036 0.005500288 -0.011575239 -0.003274064
000050 55 c4 e6 bb 7b 68 dc bb 6c 53 be ba 5b 34 1f bc
       -0.0070424476 -0.006726322 -0.0014520711 -0.009717072
000060 7a fe 7e 3b 21 dd 92 bb 0e 02 37 3b 14 97 39 bc
       0.0038909004 -0.004481927 0.0027924809 -0.011327524
000070 2c 7c c4 bc aa e0 b5 bc 9a d3 94 bc b2 6b 50 bd
       -0.023984991 -0.022201855 -0.018167306 -0.050883956
000080 31 2a 1b bd 42 6b d5 bc 8b 47 db bc 3e a6 c8 bc
       -0.037882034 -0.026052121 -0.026767513 -0.024493333
000090 50 68 06 3b 61 8a dd 3b 03 bd a3 3a 02 71 cf 3a
       0.0020508952 0.006760881 0.0012492243 0.0015826526
0000a0 3d f3 e3 3b ad 5c 1e 3c ba ce 03 3c 67 ef ec 3b
       0.0069564865 0.00966565 0.008044893 0.0072306874
0000b0 85 4f 8d 3b cc ef 5a ba 05 a8 61 3b 9f f8 24 3c
       0.004312458 -0.00083517726 0.0034432423 0.0100690415
0000c0 9b 15 6c 3a 7c 6b 96 3c c8 92 60 3c 62 2b 69 bb
       0.0009005905 0.0183618 0.01370687 -0.0035578837
0000d0 e0 f9 1e 3c b5 13 ba 3b f7 d6 5b ba 11 c0 a5 3a
       0.0097031295 0.005678619 -0.0008386219 0.0012645741
0000e0 df 45 b5 bb 85 b4 d8 b9 1e e8 98 3b 7b b5 73 ba
       -0.005532011 -0.00041333228 0.0046663424 -0.0009296757
0000f0 b5 14 ce ba 7e be 4c bb 9a 7a 45 3a 33 24 7c bb
       -0.0015722724 -0.0031241472 0.00075332227 -0.0038473725
000100 85 9a 6a 3b 34 2f d3 38 0c ad 84 39 f3 fd 94 bb
       0.0035797667 0.00010070056 0.00025305932 -0.0045468747
000110 f3 f9 42 bc 8d ca bc bb e8 49 8b 3b 17 d0 6b bb
       -0.011900413 -0.0057614506 0.0042507537 -0.0035982186
000120 7d 57 b9 bb 70 a9 49 bb 8b 41 7d 3b 0a ed c2 bb
       -0.0056561814 -0.0030771159 0.0038643803 -0.0059486674
000130 b7 c8 b7 bc 8b 1b 7b bc 18 99 e4 ba 30 ae 33 bc
       -0.022434575 -0.015326391 -0.0017440645 -0.0109668225
000140 d7 50 bf bb 04 ae 08 3c 82 ba b3 bb ff dd a1 3a
       -0.0058384943 0.00834227 -0.00548488 0.0012349485
000150 bb a0 08 3c 0c b0 92 3a 49 5e 2e 3c 0e 67 04 bc
       0.008339102 0.0011191382 0.0106425965 -0.008081211
000160 3e 2e 1c 3c e9 87 48 3b 48 43 02 bc 4f e6 f6 bb
       0.009532509 0.0030598587 -0.007950611 -0.007534779
000170 b7 f9 da 3b f0 ba 4a 3c a6 03 25 bc 1b 1c b7 39
       0.0066826004 0.012373671 -0.010071671 0.0003492542
000180 ff bc 85 bc ba 7d a6 bb 84 0c 2f bb 91 e4 f5 bb
       -0.016325472 -0.0050809057 -0.002671034 -0.007504054
000190 cf bc 13 bc d2 33 bf bc 2a ab fa 3a e6 46 19 3c
       -0.009017183 -0.02334014 0.0019124497 0.009355282
0001a0 d8 59 03 bc 7b 74 3d 3c b3 99 de bb 67 68 4c bc
       -0.008017026 0.011563416 -0.0067932247 -0.012476063
0001b0 e5 35 ca bb 5c 42 9c 3b 82 ea 4c ba b2 30 25 bb
       -0.0061709755 0.004768653 -0.0007816927 -0.0025206027
0001c0 ae f7 af 3b 38 2a 94 3b ce 85 bd 39 a8 11 0e bb
       0.005370102 0.0045216344 0.0003614858 -0.0021678004
0001d0 3e e9 8e 3b 67 28 92 bc dd e2 42 bc 2e 25 1c 3c
       0.0043613007 -0.017841531 -0.011894909 0.009530349
0001e0 55 75 a1 bc a3 ff ba bb d0 28 80 bc b7 0e 30 b7
       -0.019709269 -0.005706744 -0.01564446 -1.0493844e-05
0001f0 7e 96 01 bc 05 b2 40 bc 91 2b e2 3a 11 7a 8e 3b
       -0.007909415 -0.011761193 0.0017255415 0.0043480475
000200 ca ab b2 3a 7b 13 90 bb 92 f8 4c bc c3 9e 8a 3b
       0.0013631519 -0.0043968535 -0.012510436 0.0042303517
000210 69 16 8a ba c9 0e 01 3c 73 fd 5a 3a db 30 af 3b
       -0.0010535243 0.00787706 0.0008353807 0.0053464
000220 6d 4b dc 39 2d 03 02 bb 7f b3 6a bb 0c 74 20 3a
       0.00042017867 -0.0019838319 -0.0035812554 0.0006120808
000230 16 c5 48 3c ab a8 0f bc c4 83 ac 3b fc 65 66 bc
       0.01225402 -0.008768241 0.005264731 -0.014062401

res_net.0.bn1.weight f4 [16]
000000 f0 d3 86 3e 3e 61 5f 3e 73 86 70 3e bc 9a 28 3e
       0.2633357 0.21814439 0.23488788 0.16465276
000010 67 4c 5f 3e 25 9b 87 3e 3f 85 37 3e ac cd 29 3e
       0.21806489 0.26485553 0.17921923 0.16582364
000020 3b af cf 3d 2a b7 64 3e 5f 9b 68 3e 5a eb 1d 3e
       0.101408444 0.22335497 0.2271552 0.15421811
000030 83 b0 6c 3e 4d 6c 56 3e a7 0e 0d 3e 74 48 2f 3e
       0.23114209 0.20939751 0.1377512 0.17117482

res_net.0.bn1.bias f4 [16]
000000 64 b4 ee bd 3c d2 37 3d 51 87 3c 3e 45 1c fa bd
       -0.116555005 0.04487823 0.18410994 -0.12212423
000010 d4 dc 68 3e 88 85 e6 bd 81 75 37 3e 13 2b f2 3d
       0.22740489 -0.11255938 0.17915918 0.11824622
000020 ab c0 fc 3d a6 3f 8f 3d 10 1e 03 bd cf 7a 2b bc
       0.12341436 0.06994562 -0.03201109 -0.010466292
000030 f6 83 ed bd 98 13 a4 3d 94 ca 14 3e bc 1e 66 3d
       -0.11597435 0.0801155 0.14530402 0.056181654

res_net.0.bn1.running_mean f4 [16]
000000 af 3e e8 be cb 65 e8 be 55 39 97 be 47 bb 15 3f
       -0.45360324 -0.45390162 -0.29535928 0.5848889
000010 3a 79 4f bd 77 c7 89 be 35 ce 95 be 3f 49 42 be
       -0.05065272 -0.26909992 -0.29258886 -0.18973254
000020 f0 5c 83 3d d5 a5 22 bf 3d f1 21 3e fc 93 8d be
       0.06414211 -0.6353429 0.15814681 -0.27651966
000030 f5 31 0c be c2 7a 65 be 84 13 88 3e 88 f8 a9 be
       -0.13690932 -0.2241011 0.2657739 -0.33197427

res_net.0.bn1.running_var f4 [16]
000000 03 57 cb 3d 90 23 a1 3d 66 b3 41 3e b1 a8 60 3d
       0.099287055 0.07868111 0.18916091 0.054848377
000010 bc cf cf 3d de 83 c2 3d 3a 35 da 3d ad eb d7 3d
       0.10147044 0.09497808 0.106546834 0.105429985
000020 79 eb c5 3d f4 cf 94 3e 44 2c 4d 3d 45 e5 6e 3d
       0.096640535 0.29064906 0.050091043 0.058324117
000030 ee cf b1 3d 7d 09 b8 3d 4d 8c 3a 3e 24 ad a5 3d
       0.086822376 0.08986185 0.18217583 0.080896646

res_net.0.bn2.weight f4 [16]
000000 74 5e 09 3e 87 d0 59 3e e0 3f 60 3e 48 af 3b 3e
       0.13414937 0.21270953 0.21899366 0.18328583
000010 c8 44 a4 3d b5 66 0c 3e ca 82 4b 3e 08 44 79 3e
       0.080209315 0.13711055 0.19874111 0.24342358
000020 bc fe 8b 3e 81 c2 99 3d f3 7a 4e 3e aa 1c 3f 3e
       0.27342784 0.07507802 0.20164089 0.18663278
000030 12 9c 53 3e df 15 fe 3d 55 5c c1 3d 45 62 b5 3e
       0.20665005 0.12406515 0.09441439 0.35426536

res_net.0.bn2.bias f4 [16]
000000 de b7 67 3d 60 ec ba bc ea e6 3a 3e a3 e2 c0 3c
       0.056571834 -0.02281779 0.18252149 0.023545569
000010 9a b1 5b 3e 8a 50 72 be 45 a0 54 3e 7f c0 1b be
       0.21454468 -0.23663536 0.20764263 -0.1521015
000020 59 63 c4 3c 59 7e 44 be f6 4e 8d 3b c4 40 d3 3d
       0.023973154 -0.19188823 0.0043123914 0.103150874
000030 12 e8 5a 3e fa e2 07 bd 82 ca c3 3d da d1 a8 3d
       0.2137759 -0.033175446 0.0956011 0.08243151

res_net.0.bn2.running_mean f4 [16]
000000 99 80 3a be dd fc 60 bc eb d4 55 3e 44 88 2d 3e
       -0.18213119 -0.013732162 0.20882003 0.16946512
000010 dc 19 12 be 5e 87 8c bc 9e fb 02 3e a9 7b 8a 3e
       -0.14267677 -0.017154392 0.12791297 0.2704747
000020 2f c2 fe bd d0 69 ed 3d a9 74 00 bc 7c 08 6d be
       -0.12439381 0.11592448 -0.007840314 -0.23147768
000030 af 59 b0 be a7 ed ff bd 6f ec 4a be 96 c2 a0 bd
       -0.34443423 -0.124965005 -0.19816755 -0.07849614

res_net.0.bn2.running_var f4 [16]
000000 e1 f9 ad 3c 46 93 25 3d ca a0 2d 3d 3a ca e6 3c
       0.021237316 0.040423654 0.04238967 0.028172601
000010 60 a3 b0 3c ec cf 49 3c 7d d1 f3 3c 16 f1 16 3d
       0.021562278 0.012317639 0.029762978 0.03685101
000020 c3 25 33 3d db 13 1d 3c 6d b7 d2 3c 61 b2 2b 3d
       0.043737184 0.009587253 0.02572223 0.041918162
000030 d6 55 f5 3c 92 a7 9e 3c 36 3f e6 3c b2 dc 49 3d
       0.029948156 0.019367013 0.028106313 0.049282737

res_net.1.bn1.weight f4 [16]
000000 1a 6c 08 3e 55 5a 20 3e 5c 3d eb 3d c9 ce f3 3e
       0.13322487 0.15659459 0.11486313 0.47618702
000010 68 5d 32 3e 6d 60 35 3e 97 20 32 3e f4 f5 27 3e
       0.17418444 0.17712565 0.17395245 0.16402417
000020 dc 4b 1f 3e cf 40 2e 3e 8a a3 ed 3d 25 1c 47 3e
       0.15556282 0.1701691 0.11603458 0.1944433
000030 b7 80 5c 3e 04 26 73 3e 4f 7e 1e 3e 41 44 72 3e
       0.21533476 0.2374497 0.1547787 0.2365885

res_net.1.bn1.bias f4 [16]
000000 e5 68 9d bd 83 60 97 bd a1 c2 50 3d 1a dd ef be
       -0.07686023 -0.07391455 0.050966863 -0.46848375
000010 ed 68 a3 bd 50 50 c6 bd d4 8a 0d 3e 28 b2 c6 3b
       -0.079789974 -0.09683287 0.1382249 0.0060637183
000020 0e a5 7e bc eb 29 7b be d8 91 00 3d 4f cc 65 be
       -0.015542282 -0.24527709 0.031389087 -0.22441219
000030 48 7a 90 3d 04 ac 15 be df 5e 07 be bb 77 5a 3d
       0.07054573 -0.146164 -0.13219784 0.05333684

res_net.1.bn1.running_mean f4 [16]
000000 87 78 48 3e 3c 76 4d 3e 85 ee b8 be 72 e1 cb 3e
       0.19577228 0.20064634 -0.36119476 0.3982044
000010 45 fe ef be 54 3b 6a bf a4 ed 5b 3e b8 43 f7 be
       -0.4687368 -0.9149678 0.21477371 -0.48293853
000020 cd 5e 3b be cb fe e1 be e6 be ed bd 64 76 69 3e
       -0.18297882 -0.44139704 -0.116086766 0.22799069
000030 f5 9e 62 be 1d 66 92 3c a7 ec 21 bd b5 e5 46 bf
       -0.2213095 0.017870957 -0.03953233 -0.77694255

res_net.1.bn1.running_var f4 [16]
000000 e9 b3 cb 3d d4 2f ee 3d af 6e 9e 3d ae 2f 07 3e
       0.099464245 0.11630216 0.07735955 0.13201782
000010 bc ec 0d 3e fb 40 0b 3e 19 d8 78 3e 93 20 1c 3e
       0.13859838 0.13599007 0.24301185 0.15246801
000020 a7 63 f6 3d 3e 4a 7d 3d f2 dc db 3d 52 f2 e6 3d
       0.12030726 0.06183838 0.10735501 0.11276688
000030 f0 71 81 3e 48 8a 28 3e 19 d4 cf 3d a5 26 dc 3e
       0.2528224 0.16459 0.10147876 0.42998233

res_net.1.bn2.weight f4 [16]
000000 e2 7f 5d 3e b6 44 05 3e 00 a0 8d 3e 90 01 00 3e
       0.21630815 0.13014492 0.27661133 0.12500596
000010 fc 43 5f 3e 9c 07 17 3e 52 04 ae 3e 89 57 41 3e
       0.21803278 0.14748996 0.3398767 0.18881048
000020 af fd 06 3e 71 1a 16 3e 8c 7b ad 3d 1f d8 20 3e
       0.1318271 0.14658524 0.0847083 0.15707444
000030 ca a3 86 3d cf 15 84 3e 48 b1 89 3e 07 e4 f9 3e
       0.06574209 0.2579789 0.26893067 0.48806784

res_net.1.bn2.bias f4 [16]
000000 a0 f9 81 3e bd 74 1d 3e fd fb d8 3c 6d 55 cf 3d
       0.2538576 0.15376563 0.026487345 0.101237155
000010 d5 e2 dd bd b7 2e 14 be f0 93 ee bd 68 17 44 bd
       -0.108342804 -0.14470945 -0.116493106 -0.047873884
000020 60 69 b8 3c b2 54 2e 3e 83 f2 9d be eb 88 bd 3d
       0.022511184 0.17024496 -0.30849084 0.09254631
000030 22 61 64 3d 9e 9e 8b 3d d7 b0 10 3d 73 58 45 3e
       0.055756696 0.06817363 0.035324898 0.19272022

res_net.1.bn2.running_mean f4 [16]
000000 3f 45 09 be 04 fe bf bd 95 62 c6 bc a0 d0 10 3e
       -0.13405322 -0.093746215 -0.02421693 0.14142084
000010 cb 29 b2 ba 1b ff 2b 3d d4 4c 3c bd 5d 48 5f bd
       -0.0013592778 0.041991334 -0.045971707 -0.05451237
000020 a7 93 8e 3d 65 6e cb bd 1f 6f 64 bd 1f f4 0c bb
       0.06961756 -0.099331655 -0.055770036 -0.0021507812
000030 23 6c d5 b8 29 6e bd bc 79 5e fa bd a3 84 07 bd
       -0.000101767735 -0.023123818 -0.122250505 -0.033085477

res_net.1.bn2.running_var f4 [16]
000000 4a 0b 19 3d 7b 97 94 3c be 64 83 3d 97 1d ad 3c
       0.03736428 0.018138638 0.064156994 0.021132274
000010 12 fc 23 3d af b6 99 3b 18 3d 2d 3d f0 ff 90 3c
       0.040035315 0.004690967 0.04229459 0.017700166
000020 6c 32 d3 3b 48 ce 35 3c 53 a3 18 3c 0b 74 90 3c
       0.0064452197 0.011096545 0.009316283 0.017633459
000030 db 99 0e 3c bd 25 0d 3d 9a 9e c9 3c cd 5c 43 3d
       0.008703674 0.03445982 0.02461176 0.047695924

res_net.2.bn1.weight f4 [16]
000000 70 f9 ef 3d c0 f9 2e 3e 4e c6 72 3e 6b 63 87 3e
       0.11717498 0.1708746 0.2370846 0.26443037
000010 45 7a 87 3e 20 52 63 3e c1 d9 8b 3e 66 91 b8 3e
       0.26460472 0.22199297 0.2731457 0.3604843
000020 7c 36 86 3e b2 4a 59 3e e6 02 f2 3d 78 f8 66 3e
       0.26213443 0.212199 0.11816959 0.22555721
000030 f1 8c 53 3e 77 de 8c 3e 81 eb 43 3e 36 12 4d 3e
       0.20659234 0.27513477 0.19132806 0.20026478

res_net.2.bn1.bias f4 [16]
000000 1c a3 af 3c 44 0f a8 bd 82 9b 06 be 9e 74 4f bd
       0.021440081 -0.08206037 -0.13145259 -0.050648324
000010 50 49 50 be 2e 1b fe bc 89 81 e8 bd fc b3 a8 bc
       -0.20340466 -0.03101882 -0.11352832 -0.020593636
000020 22 42 78 bd fe 9e d8 bd 7a 35 24 bc f0 6d ea bd
       -0.060609944 -0.105772 -0.010022515 -0.1144675
000030 d3 55 bd bd f0 27 42 bd f0 b2 2d be 46 25 8d bd
       -0.09244885 -0.04740137 -0.1696279 -0.06891875

res_net.2.bn1.running_mean f4 [16]
000000 51 48 da be a9 cc 9c 3e 13 3d 03 3f ce 88 68 3e
       -0.42633298 0.30624893 0.51265067 0.22708437
000010 c6 50 73 bd 83 a6 86 be d5 49 9a bd 19 af a4 be
       -0.059403203 -0.26298913 -0.075336136 -0.3216484
000020 af 41 cf 3c 01 75 2e 3e cf 1c 4f 3e 00 a0 25 3e
       0.025299875 0.17036821 0.20225833 0.16174316
000030 91 20 90 bd f1 9b 4e be a1 ab d8 3e 1c e9 45 bf
       -0.070374615 -0.20176674 0.42318442 -0.7730882

res_net.2.bn1.running_var f4 [16]
000000 cf 48 ca 3d 3b ef 13 3e ea a8 3d 3e 0d cd dc 3e
       0.098771684 0.14446728 0.18521467 0.4312519
000010 a2 67 1b 3e 63 9d 7a 3e 55 0a 68 3e 2d 2d 4b 3f
       0.15176252 0.24474101 0.22660191 0.7936581
000020 a6 b6 f0 3e 6d c3 47 3e 38 3f 1b 3e 9d 9f 4a 3e
       0.4701435 0.19508143 0.15160835 0.1978745
000030 2b 15 21 3e 47 3e 19 3f a6 2c 09 3e 1c 5a 88 3e
       0.15730731 0.5986065 0.13395938 0.26631248

res_net.2.bn2.weight f4 [16]
000000 20 62 32 3e 9f ab 22 3e 15 ff 7a 3e 6d b5 92 3d
       0.17420244 0.15885781 0.24511369 0.071635105
000010 bc 72 65 3d 70 63 67 3e c5 dd e2 3d 46 6c 20 3e
       0.056017622 0.22596526 0.110774554 0.15666303
000020 34 d8 f8 3d ac 8e e7 3d c8 a3 7d 3e af ec 9e 3d
       0.121506125 0.113065094 0.24769509 0.077599876
000030 f0 5f 00 3f fd c7 c9 3d bf 5c 0c 3e 76 8a b9 3d
       0.5014639 0.09852598 0.13707255 0.090596125

res_net.2.bn2.bias f4 [16]
000000 f8 94 c1 3d 86 53 1d 3e 2a 32 ab 3c ed 59 de 3d
       0.09452242 0.15363893 0.020897944 0.10856996
000010 48 6f 22 3d 4a 45 8d 3e 06 7b 39 bc 1f df 26 3e
       0.039656907 0.27591926 -0.011320835 0.16296051
000020 e8 16 7c be d7 4f 03 bc d4 a9 85 3e 2a 00 9d 3d
       -0.24618113 -0.008014641 0.2610613 0.07666047
000030 30 3e 59 bd 23 4b 36 3e 86 f6 d9 bc e6 d1 5e 3c
       -0.053037822 0.178021 -0.02660681 0.013599848

res_net.2.bn2.running_mean f4 [16]
000000 77 11 0a be ac 45 8f bd 2a 37 0d 3e 56 12 08 3e
       -0.13483225 -0.06995711 0.13790575 0.13288245
000010 6f a9 93 3c d2 7f 80 bd 4a f2 a7 3d 7d 4b 43 3d
       0.018025128 -0.0627438 0.0820051 0.047679413
000020 7d 2d cd 3d 2e 8e 59 bd b5 e7 64 be 55 68 0d bb
       0.10018442 -0.05311411 -0.22354014 -0.002157708
000030 39 e1 66 be 53 a6 a4 3d 72 52 b6 bd 81 38 1c bd
       -0.22546853 0.08039536 -0.08902444 -0.038139824

res_net.2.bn2.running_var f4 [16]
000000 24 c1 c5 3c 28 3e ab 3c 94 f4 00 3d ee 47 74 3c
       0.024139948 0.020903662 0.031483248 0.0149097275
000010 34 e8 3e 3c 53 74 96 3c 42 65 0d 3c 20 35 bf 3c
       0.011652041 0.018366015 0.008630099 0.023340762
000020 b2 86 2b 3c 37 9d 0d 3c a1 a8 fd 3c 7d d6 34 3c
       0.010469126 0.00864344 0.030964198 0.011037466
000030 d0 3f 24 3d 3b 77 46 3c fd 9b 8b 3c 1f f4 d9 3b
       0.04009992 0.012113388 0.017042154 0.006651416

res_net.3.bn1.weight f4 [16]
000000 ef 2e 07 3e 5f 52 52 3e 68 dc 2e 3e 0a e5 57 3e
       0.13201497 0.20539235 0.17076266 0.21083465
000010 e1 83 88 3e bc f0 5f 3e 78 70 d6 3d d6 8c 48 3e
       0.26663116 0.21869177 0.104706705 0.19584975
000020 6f b0 56 3e 35 e5 4e 39 61 58 12 3e 74 19 dd 3d
       0.20965742 0.00019731077 0.14291526 0.107958704
000030 63 f5 3b 3e 69 37 14 3e c5 47 2d 3e 55 62 7d 3e
       0.18355326 0.14474262 0.16921909 0.24744542

res_net.3.bn1.bias f4 [16]
000000 3c 17 17 be b8 7d b4 bd d6 a5 c9 bd 97 af 32 bd
       -0.14754957 -0.088130414 -0.09846084 -0.043624487
000010 d3 29 4c be 81 47 25 be 9e 8e 92 bc 5c 35 a5 bd
       -0.1993783 -0.16140558 -0.01789027 -0.08066818
000020 1a a1 a3 bd 3b f2 c0 ba 26 61 b8 3d 65 9e 86 bc
       -0.07989712 -0.0014720628 0.090029046 -0.01643295
000030 29 48 50 be b2 4b c8 3d ff e2 dc bd 32 43 92 bd
       -0.20340027 0.09780063 -0.107854836 -0.07141723

res_net.3.bn1.running_mean f4 [16]
000000 07 c0 04 3e f5 02 41 3d 63 83 05 be cf 7d a6 3c
       0.12963878 0.04712196 -0.13038401 0.020323662
000010 b3 7a ac be 43 1d 93 be cc 44 b2 bd 03 97 a4 bd
       -0.33687362 -0.28733262 -0.08704528 -0.08036616
000020 0a 19 90 3e 63 55 0c be 18 06 3d be b1 6b 9b be
       0.28144103 -0.13704447 -0.18459356 -0.303556
000030 5a 46 a1 3d 60 60 5c be 80 c7 d7 bd 3d 2c 74 be
       0.078747466 -0.21521139 -0.105360985 -0.23845

res_net.3.bn1.running_var f4 [16]
000000 74 2f 8e 3d 0c a5 96 3e 94 72 a9 3d e2 1c b8 3e
       0.06942645 0.29422796 0.08273807 0.35959536
000010 f6 0a c8 3d 45 c0 02 3e 5f 90 b3 3d 74 aa 7b 3e
       0.09767716 0.12768658 0.08767771 0.24576741
000020 8e 21 b1 3e ed f8 ed 3d 4e 3e 68 3e a9 bb b1 3d
       0.34595913 0.116197444 0.22680017 0.086783715
000030 d0 9c 23 3e 81 32 41 3e ed 32 fa 3d 37 24 1c 3f
       0.15977788 0.18866922 0.122167446 0.6099276

res_net.3.bn2.weight f4 [16]
000000 16 c0 c2 3d af 93 0e 3e 7c 3d a8 3d 86 ae b2 3d
       0.09509294 0.13923524 0.08214852 0.08724694
000010 63 e1 1e 3e b1 3a 04 3e 53 1f b4 3e be 76 8e 3d
       0.15515666 0.12913014 0.35180148 0.06956242
000020 35 9f f7 3d e9 d6 55 3e 2e 54 0b 3e cf 76 37 3e
       0.12090913 0.20882763 0.13606331 0.17916416
000030 e3 3f ee 3d c2 b0 19 3d 47 2d 08 3e 65 0b 47 3e
       0.11633279 0.037522085 0.13298522 0.1943794

res_net.3.bn2.bias f4 [16]
000000 09 46 34 bc 44 0b 27 3b 11 46 2d 3d 41 32 b7 3d
       -0.011003026 0.0025488893 0.04230315 0.08945132
000010 9c 2c a1 bd ef 57 17 3d 28 54 4e bb 34 44 91 3d
       -0.07869837 0.036949094 -0.0031483267 0.07093087
000020 54 8b a5 3d ad ff 7d bc 33 b3 84 3d 1e 17 86 3c
       0.08083215 -0.015502852 0.06479492 0.016368445
000030 e9 91 77 3e cb e7 3e 3d 69 fd 4f 3d 59 9b 71 bc
       0.24176754 0.046607774 0.05077878 -0.01474651

res_net.3.bn2.running_mean f4 [16]
000000 28 11 9d bd 22 77 f5 bd 1d b8 ff 3b a9 f4 3d 3d
       -0.07669288 -0.119856134 0.0078039304 0.046375904
000010 32 4c ea bd d0 67 d1 3c 42 2c 2f bd 0f 6f 2f bc
       -0.11440314 0.025562197 -0.042766817 -0.010707631
000020 1b ba d5 bb 7c b2 06 be cb 3a 62 bd 28 5d 69 bc
       -0.0065224296 -0.13154024 -0.05523185 -0.014243402
000030 8f ab 45 bd e2 d2 f0 bb f4 17 f4 bc 06 89 29 bd
       -0.048259314 -0.007349358 -0.029796578 -0.04139044

res_net.3.bn2.running_var f4 [16]
000000 e3 df bf 3b 20 0b 10 3c 66 60 80 3b b6 ec a4 3b
       0.005855547 0.008791715 0.0039177416 0.005033101
000010 9b 77 de 3b d7 95 c9 3b c4 6e 88 3c d7 ed ac 3b
       0.0067891604 0.0061518955 0.01665438 0.005277376
000020 c7 d7 09 3c 5f 99 3d 3c 30 dd 9a 3b 1b 01 09 3c
       0.008413262 0.011572211 0.0047260746 0.00836208
000030 97 eb bd 3b 62 f5 29 3b 61 fc e7 3b ee 70 a2 3b
       0.0057959068 0.0025933613 0.0070796465 0.00495731

res_net.4.bn1.weight f4 [16]
000000 64 ce 49 3e 68 2d 52 3e f7 e4 5d 3e 45 25 03 3e
       0.19707638 0.20525134 0.21669374 0.12807186
000010 d2 fa 68 3e 84 a8 8a 3e f5 a1 3f 3e 66 00 3d 3e
       0.2275193 0.27081692 0.18714125 0.18457183
000020 48 1f 32 3e f6 a6 1d 3e df 57 32 3e a7 82 d8 3a
       0.17394745 0.15395722 0.17416333 0.001651843
000030 35 c8 65 3e 2a 33 26 3e 46 dc 1c 3e b1 8d 88 3e
       0.22439654 0.16230455 0.15318403 0.26670602

res_net.4.bn1.bias f4 [16]
000000 e0 7b 1a be 2b 85 f3 bd 39 b5 40 be b8 12 0e be
       -0.15086317 -0.11890634 -0.18819131 -0.13874328
000010 3e 2b 77 be 6d f0 38 be 1c f1 19 be 46 f8 59 be
       -0.2413759 -0.18060465 -0.15033382 -0.21286115
000020 8c e7 26 be 19 1c c8 bd 06 14 0c be c9 d4 3d bc
       -0.16299266 -0.09770984 -0.13679513 -0.0115863765
000030 23 d5 3c be 66 35 00 be ef b2 f0 bc 6c 1b 78 bd
       -0.1844068 -0.1252037 -0.029382197 -0.060573027

res_net.4.bn1.running_mean f4 [16]
000000 1b 85 3b 3e 8f 78 83 bf f4 60 a0 3e 32 80 fb 3e
       0.18312494 -1.0271167 0.3132397 0.49121243
000010 06 a0 18 bf 10 13 a2 be ae 01 f1 be bb a1 7f be
       -0.59619176 -0.3165517 -0.47071594 -0.24964039
000020 51 aa 80 bf 70 e7 d1 3e 19 56 ba bd e9 43 8f 3e
       -1.0051976 0.40996885 -0.09098453 0.279815
000030 ed f5 e6 be 34 96 4e 3e 83 f4 19 be 3e cf 77 3e
       -0.451095 0.20174485 -0.1503468 0.2420015
